DQN_model.pth (torch, 540832 bytes, 8 tensors)

0.weight f4 [256, 6]
0	0x3ed5d06e	0.41760582
1	0x3e00e4bf	0.1258726
2	0xc06e68bc	-3.7251425
3	0x41590660	13.564056
4	0xbeb782e6	-0.35842055
5	0xc09e9390	-4.955513
6	0xbeb04a5a	-0.34431726
7	0x3d4e2332	0.050326534
8	0x3ec5accf	0.38608405
9	0xbe80d194	-0.25159895
10	0xbea2ed6a	-0.31821758
11	0x3e656514	0.2240184
12	0xbdf0086b	-0.117203556
13	0xc12b7a1b	-10.717311
14	0x40be74c6	5.9517546
15	0x402768e9	2.6157782
16	0xc11b39d3	-9.701617
17	0x408e5664	4.4480457
18	0xbebc056f	-0.36722896
19	0x3d4d5325	0.05012812
20	0x3ea5b5d1	0.32365277
21	0xbe1d5dfe	-0.15367886
22	0xbcaed929	-0.021343784
23	0x3eb9d597	0.3629577
24	0xbb181196	-0.0023203841
25	0x3e6e01c3	0.2324286
26	0x4086a6eb	4.2078757
27	0x41a16b61	20.177431
28	0xbd1ff362	-0.039050467
29	0x406a423c	3.6602926
30	0x3e89c7b8	0.26910186
31	0x405975dc	3.3978186
32	0xc0b7d8b1	-5.7452016
33	0xc1af0dd7	-21.881758
34	0xbfa66674	-1.3000016
35	0xc07a5855	-3.9116414
36	0xbfb131ac	-1.3843284
37	0x3ea5aa1d	0.3235635
38	0xc02d2e3e	-2.7059474
39	0xbead2eac	-0.3382467
40	0x3f077e9b	0.5292756
41	0xbf5c2872	-0.85999215
42	0xbf049cb4	-0.5180161
43	0xbfe9aab4	-1.825522
44	0x41af15a7	21.885572
45	0x418ad297	17.352827
46	0x3fbeb163	1.4897884
47	0x40649b34	3.5719728
48	0x3da2c091	0.079468854
49	0xc1866d70	-16.803436
50	0x40974dcc	4.7282467
51	0x4198808b	19.062765
52	0x402caf6b	2.6982067
53	0xc0a0f1e1	-5.029526
54	0xbef4eac8	-0.47835374
55	0x3ca1b711	0.019740613
56	0xc101155e	-8.067717
57	0xbf237aa7	-0.6385903
58	0x3f3824b2	0.7193099
59	0x3e96ceaa	0.29454547
60	0x3daacfc0	0.083404064
61	0xbff1b585	-1.888352
62	0x3faf720c	1.3706679
63	0x41182375	9.5086565
64	0x3ec78a6c	0.38972795
65	0x40967e4d	4.7029176
66	0x3ddbd44f	0.10733854
67	0xc1188bc3	-9.5341215
68	0x40c74937	6.2276874
69	0x412505d5	10.313924
70	0xbf957553	-1.167643
71	0x3f8720bd	1.0556866
72	0x3d47e222	0.04879964
73	0xc1b6c47c	-22.84594
74	0x3fc7844b	1.5587248
75	0xc186c15d	-16.844416
76	0xc16cdf82	-14.804567
77	0x3e8cd39a	0.2750519
78	0x3e08aa39	0.13346185
79	0x3e402ba6	0.1876665
80	0x3fab2bf4	1.3372788
81	0x417ddf94	15.8670845
82	0xbd89dbca	-0.067313746
83	0x4053bf45	3.3085492
84	0xbe59f42d	-0.21284552
85	0x3e447d1e	0.19188353
86	0xbcd4f8a5	-0.02599747
87	0x3e1fdd1b	0.15611689
88	0xbeb4b64d	-0.35295334
89	0x3ec5a21b	0.3860024
90	0x3e25b942	0.16183951
91	0x3ecc8a1c	0.3994912
92	0x3fa126c1	1.2589952
93	0xc1837edd	-16.436945
94	0xbd582ce0	-0.05277717
95	0xc0eb254e	-7.348304
96	0xbb04813b	-0.002021863
97	0x3f932000	1.1494141
98	0xc0e07a74	-7.014948
99	0x413466b2	11.275072
100	0x3ed7d01f	0.4215097
101	0x405bbc3c	3.433364
102	0xbe189c82	-0.14903453
103	0x3eb8d5d6	0.36100644
104	0x3e56950d	0.20955296
105	0x3ea385b1	0.31937936
106	0xbeb035e7	-0.34416124
107	0x3e81f497	0.2538192
108	0xbd0583c9	-0.032596383
109	0x3e07ba9b	0.13254778
110	0x405b4edd	3.4266884
111	0x4154f598	13.309959
112	0x3ff542b0	1.9160976
113	0x407e6faf	3.9755666
114	0xbd5588f1	-0.05213255
115	0xbedc607b	-0.4304236
116	0xbde5e44b	-0.11225184
117	0xbded16ef	-0.1157664
118	0xbe2c5e68	-0.16832888
119	0x3d8ef677	0.06980603
120	0x3e029bd4	0.12754756
121	0xc17cb6d3	-15.794635
122	0x40a934c9	5.2876935
123	0x41108849	9.033273
124	0x4018ce48	2.3875904
125	0xc08695aa	-4.2057695
126	0x3d1db470	0.038502157
127	0xbe0a1905	-0.13486107
128	0xc2365c38	-45.590057
129	0xc200c3d7	-32.19125
130	0xbd12de99	-0.035856817
131	0xc0e6c1d2	-7.2111597
132	0x3e097662	0.13424066
133	0xbf198ace	-0.59977424
134	0xbde2070a	-0.11036499
135	0xc1ccf280	-25.618408
136	0xc0ed49ed	-7.415274
137	0xc081d8b2	-4.057702
138	0x3ccdd242	0.025124673
139	0xc1f113d2	-30.134678
140	0xc012d8d1	-2.2944834
141	0xc25a3b6a	-54.55802
142	0xc1c7de5d	-24.983576
143	0x3d369458	0.044575065
144	0x3df6e72e	0.12055813
145	0xbd736438	-0.059421748
146	0x3f289fb5	0.65868694
147	0x4159b248	13.606026
148	0x3ee643cf	0.4497361
149	0x409f9a42	4.9875803
150	0xbc0ee997	-0.008722684
151	0xc03bda35	-2.9351933
152	0x40d1374f	6.5380015
153	0x411c437a	9.766474
154	0x3de04dc0	0.1095233
155	0x401fbbbc	2.4958334
156	0x3b0221e3	0.0019856624
157	0xc08f1705	-4.47156
158	0x4062aa0f	3.5416296
159	0x41042f33	8.261523
160	0xbe028681	-0.12746622
161	0x40903111	4.5059896
162	0xbec65006	-0.38732928
163	0xbea4a247	-0.32155058
164	0xbebe2c67	-0.3714325
165	0xbeb34268	-0.350116
166	0xbe95205c	-0.2912625
167	0xbe241e0f	-0.16027091
168	0xbea928eb	-0.3303903
169	0xbe402f16	-0.18767962
170	0x3e3302bd	0.17481513
171	0x3ec07301	0.3758774
172	0xbd00aa99	-0.031412695
173	0xbec31ae9	-0.38106468
174	0x3a13f68d	0.0005644344
175	0xc1259693	-10.349261
176	0x411fefd8	9.996056
177	0x40d32154	6.5978184
178	0xbfb4cc81	-1.412491
179	0x40261be2	2.5954518
180	0xbeb127cd	-0.34600678
181	0x3e5420d5	0.2071565
182	0x3ec5a711	0.38604024
183	0xbe1af6bd	-0.15133186
184	0xbe869d4e	-0.2629189
185	0xbe81bc3e	-0.2533893
186	0xbdd52cff	-0.10408973
187	0x3ebe7d85	0.3720514
188	0x400ba8f9	2.1821883
189	0x409d6068	4.9180183
190	0x3ed6ae40	0.41929817
191	0x404eff4c	3.234332
192	0xbe709bfa	-0.23497
193	0x3eae947d	0.34097663
194	0x3d8df5d4	0.069316536
195	0xbec90966	-0.39264983
196	0xbd8ce311	-0.06879247
197	0x3e982613	0.29716548
198	0xbe92115f	-0.28528878
199	0x3e84e305	0.25954452
200	0x3ec7c45a	0.39016992
201	0x3e1346c4	0.14382464
202	0xbdb89549	-0.09012849
203	0x3e2a5ac5	0.16636188
204	0xbe78b9ed	-0.24289675
205	0x3f51a9c4	0.81899667
206	0xc0cca838	-6.3955345
207	0xc0de3d38	-6.944973
208	0xc065d6e3	-3.5912406
209	0x4064a6a8	3.572672
210	0x3ab70c5e	0.0013965478
211	0xc0609a22	-3.5094075
212	0x4109991d	8.599881
213	0x4122071f	10.126739
214	0x3f03608a	0.5131918
215	0x3fe80884	1.8127599
216	0x3e1239f0	0.14279914
217	0x3f488250	0.7832384
218	0x3fc78def	1.559019
219	0x4181e8cb	16.238668
220	0xbe890cfd	-0.26767722
221	0x407a3996	3.9097648
222	0x3d95a18e	0.07306205
223	0x3fa33535	1.2750612
224	0x3e406be3	0.18791156
225	0xc14b808f	-12.718886
226	0x3ef4a20b	0.4777988
227	0xc0d54cf6	-6.6656446
228	0xbecb480c	-0.39703405
229	0xbe91a613	-0.28447017
230	0x3eaffeb2	0.34374005
231	0xbeb15f8a	-0.34643203
232	0x3d9a86cf	0.07545244
233	0xbdc8c623	-0.098034166
234	0x3e7b1c5e	0.2452254
235	0x3da8bf70	0.08239639
236	0xbeeb6377	-0.45974323
237	0x416160c1	14.086122
238	0xbe38f676	-0.18062767
239	0x405d60f1	3.4590418
240	0x3b87db2d	0.004146001
241	0xc093ea50	-4.6223526
242	0x40e37069	7.107472
243	0x4124cc67	10.299903
244	0x3f20aa6e	0.62760055
245	0x4013aa01	2.3072512
246	0xbbe5ec78	-0.0070167147
247	0xc024274f	-2.5648992
248	0x41423749	12.138497
249	0x3f19b743	0.6004526
250	0xbf2daa59	-0.67838055
251	0x403b9e15	2.9315236
252	0xbf64f0c4	-0.8942988
253	0x3ef43595	0.4769713
254	0xbfe7a37d	-1.8096768
255	0xbed24da8	-0.41074872

0.bias f4 [256]
0	0xc039b0eb	-2.9014232
1	0x3e887805	0.26654068
2	0x40b42fdc	5.630842
3	0x3e31d8ef	0.1736791
4	0x41e37383	28.431402
5	0xc21216ce	-36.52227
6	0x3e35ef20	0.17767
7	0xc15ada5e	-13.678312
8	0x3fb5ae0d	1.4193741
9	0xbe453ace	-0.19260713
10	0x4130a0bf	11.039245
11	0x4142a6e1	12.165742
12	0x41887f93	17.062292
13	0x41a4a51c	20.58062
14	0x3e225cc1	0.15855695
15	0xc19eb870	-19.840057
16	0x41a20257	20.251143
17	0x3e3ee434	0.1864174
18	0x4197e930	18.988861
19	0x3d867911	0.0656606
20	0xc10e90ff	-8.910399
21	0xc253096d	-52.759205
22	0xc1dccaed	-27.599085
23	0x41a4f4a1	20.619448
24	0x4162b096	14.168112
25	0xbf6e982a	-0.93200934
26	0x41286f8e	10.527235
27	0x3eb971a5	0.36219516
28	0x3e6ea83f	0.23306368
29	0x41195c73	9.585071
30	0x3e0c7cc0	0.13719463
31	0x40df0fda	6.970685
32	0x3d236d0f	0.03989893
33	0x3e953c0b	0.29147372
34	0x40d04936	6.508937
35	0x4092ce17	4.5876575
36	0x41a88fa7	21.070143
37	0xc14f096d	-12.939801
38	0x3d98a850	0.07453978
39	0x4183d93d	16.481073
40	0xbed510f3	-0.41614494
41	0xbfbb5585	-1.4635473
42	0x3e8f7e7b	0.28026184
43	0xbd04d9f1	-0.032434408
44	0x3e3ace5e	0.18242785
45	0xbe2fba18	-0.17160833
46	0xc1913b95	-18.154093
47	0xbdaea4b3	-0.08527508
48	0x4230a3c7	44.15994
49	0x3f81082c	1.0080619
50	0x3eb6c0fd	0.35694113
51	0xbebce5e3	-0.3689414
52	0x3fcad217	1.5845364
53	0x41043b6a	8.264505
54	0xc18f9fe9	-17.953081
55	0x40e207fd	7.063475
56	0x41cc128d	25.509058
57	0x3fa80e5d	1.3129383
58	0x3ec8f549	0.39249638
59	0x40df850e	6.984992
60	0x41a2096c	20.2546
61	0x4158d217	13.551291
62	0x42312f14	44.295975
63	0x41a4fb5b	20.622732
64	0x41acd36c	21.603233
65	0x41d73a35	26.903421
66	0xbe3f5005	-0.18682869
67	0xc0965f27	-4.6991153
68	0xc1519321	-13.09842
69	0x4115718e	9.340223
70	0xbe91ed85	-0.28501526
71	0xc185432c	-16.657799
72	0xc095c210	-4.6799393
73	0xbede4840	-0.43414497
74	0x41250721	10.31424
75	0xbe571734	-0.21004945
76	0x3e91335b	0.28359494
77	0xc1fa59ef	-31.293913
78	0xc19034b3	-18.025732
79	0xbe738815	-0.2378238
80	0x3fc67882	1.5505526
81	0xbf69d8d4	-0.9134648
82	0x3e70a4ba	0.23500338
83	0x3e8a48e3	0.27008733
84	0xc1677339	-14.465631
85	0xc07b806c	-3.9297132
86	0x418dd361	17.728212
87	0xc1a6680a	-20.8008
88	0x41843c18	16.529343
89	0x41c37cd1	24.435946
90	0xc14fae5a	-12.980066
91	0x419ad6d9	19.354906
92	0x3e861a40	0.26191902
93	0xc215ad58	-37.41928
94	0x3c8c534d	0.017129565
95	0xc0805887	-4.0108066
96	0xc08cb10c	-4.396612
97	0x41431a2a	12.193888
98	0xc0f27b5a	-7.5775576
99	0xc0987590	-4.764351
100	0xc0b7367d	-5.7254014
101	0x418cb112	17.58646
102	0xc1d356eb	-26.41744
103	0x41808963	16.067083
104	0xc133c8aa	-11.23649
105	0x3fbd33d1	1.4781438
106	0xc13653a2	-11.395418
107	0xc150b26a	-13.043558
108	0x3d2b6ac3	0.041849863
109	0x3eadaae1	0.33919433
110	0xc0b42cba	-5.63046
111	0x4135d999	11.365624
112	0xc00e82bc	-2.2267294
113	0x41a077d4	20.05851
114	0xc0f19930	-7.5499496
115	0x418a64a0	17.299133
116	0xc1843f2e	-16.53085
117	0xc096506a	-4.697316
118	0x41c270b2	24.305027
119	0xbe84148a	-0.2579692
120	0x4209111b	34.266705
121	0xbea59ab3	-0.3234459
122	0x3d218363	0.03943194
123	0x3d5c1871	0.053734247
124	0x3e6e3e1e	0.23265883
125	0x3e61ebad	0.2206256
126	0x3ddd6dd4	0.10811964
127	0x3e97f640	0.2968006
128	0x418b335c	17.400078
129	0x41ad30c5	21.648813
130	0xc0afadcb	-5.489965
131	0xc20879ab	-34.118816
132	0x411cc5c8	9.798286
133	0x3e966df9	0.29380777
134	0x41b40701	22.50342
135	0x415763e8	13.461891
136	0x41aba208	21.454117
137	0xc0b68244	-5.7034016
138	0x41acfb69	21.622759
139	0x3ec4be85	0.38426605
140	0x419e7a10	19.8096
141	0x41861fe3	16.76557
142	0x3e150dab	0.14555995
143	0x41e969e9	29.176714
144	0x3e21e653	0.15810518
145	0x40b2345d	5.568892
146	0xbef92113	-0.48658046
147	0xc1b92b7b	-23.14623
148	0xbe6a1346	-0.22858915
149	0xc1703512	-15.012957
150	0x3ec764e6	0.38944167
151	0x3ea43cb9	0.32077578
152	0x422b707e	42.859856
153	0xbd46cf3f	-0.04853749
154	0xc188d4b3	-17.103857
155	0x40889ea9	4.2693677
156	0xc1ec3b1e	-29.528866
157	0xc164e23f	-14.305236
158	0xbd5df434	-0.05418797
159	0x41981bed	19.013636
160	0xc16b88bb	-14.720881
161	0x41933d45	18.404917
162	0x41542e88	13.26136
163	0xc129b0ec	-10.605694
164	0x409c5725	4.8856378
165	0x3ecc9d9d	0.39964
166	0xbd4d8737	-0.05017778
167	0x3d8f2515	0.06989495
168	0x3f4a657d	0.7906111
169	0xc1133f05	-9.202886
170	0xbe8a5387	-0.2701685
171	0x4094dab7	4.6516986
172	0xbe1a55b2	-0.15071753
173	0x419ba79c	19.45684
174	0xc1b6c0cd	-22.844141
175	0xc16e7a19	-14.904809
176	0x41818c89	16.19362
177	0x3fd6fad1	1.6795293
178	0x3ecb8633	0.39750823
179	0xbcdedbae	-0.02720436
180	0x41664a03	14.393069
181	0xc0d3e68b	-6.6218925
182	0x3eccb08f	0.39978454
183	0x3f2250f5	0.6340478
184	0x3ed75fd4	0.420653
185	0x3f605e62	0.87644017
186	0xc1532533	-13.196582
187	0x41245cc9	10.272653
188	0xbe3875d3	-0.18013696
189	0x41a5da62	20.731632
190	0xbec0f29a	-0.3768509
191	0x3d4f26d8	0.050574154
192	0x4113a655	9.228108
193	0x3e852d94	0.26011336
194	0x40bb1aee	5.8470373
195	0x40fe40ff	7.945434
196	0x40fff4ac	7.998617
197	0xbff075aa	-1.8785908
198	0xbec42589	-0.38309887
199	0xc11bfbf0	-9.749008
200	0xbec1fd59	-0.378886
201	0xc0330e88	-2.797762
202	0xc1a8b923	-21.090399
203	0xc2027ee9	-32.623936
204	0x3e1081ad	0.14111967
205	0x3eee864c	0.46586835
206	0x41592b32	13.573046
207	0x3ec1a06a	0.378177
208	0xbec07775	-0.37591138
209	0x3e8dbbab	0.27682242
210	0xc14a6f1d	-12.652127
211	0x3e6fc6dd	0.23415704
212	0x41af01a9	21.87581
213	0x41aaaf9e	21.33575
214	0x3dfa97dc	0.12235996
215	0xbe08b315	-0.13349564
216	0x419362ae	18.423183
217	0x40eeacd0	7.4585953
218	0xc25c5e21	-55.091923
219	0x41532ba1	13.198152
220	0xbdb792a9	-0.0896352
221	0x41955b98	18.669724
222	0x3eb12b57	0.34603378
223	0xc1ae3d3f	-21.779905
224	0xc070232f	-3.7521474
225	0x41a2c87a	20.347889
226	0xc13bdd1f	-11.741485
227	0x41954c92	18.662388
228	0xbf8db8db	-1.1072038
229	0xbeb70825	-0.357484
230	0xc1634347	-14.203925
231	0x419ba504	19.455574
232	0xc1b81ceb	-23.01412
233	0x406e7cb9	3.7263625
234	0x412043e6	10.016577
235	0x4185fb1e	16.747616
236	0x4180ec19	16.115282
237	0x40ff8684	7.9851704
238	0x3e9bb13a	0.3040865
239	0x417cb154	15.793293
240	0x41b57730	22.683197
241	0x4198453c	19.033806
242	0x40b57386	5.670352
243	0xc0fd08d5	-7.907328
244	0xc1b98ced	-23.193811
245	0x3e91f5f4	0.2850796
246	0x3e8b2182	0.27174002
247	0x3e8707c5	0.26373115
248	0xc12a507f	-10.644652
249	0x4161a479	14.102654
250	0xbe80792e	-0.25092453
251	0xbe4d3c72	-0.2004259
252	0xc13e5dd6	-11.897909
253	0x41a80a62	21.00507
254	0xbe6372af	-0.22211717
255	0xc1033326	-8.199987

2.weight f4 [256, 256]
0	0x3ba9b451	0.005178966
1	0x3d723bb6	0.059138976
2	0x3ca21739	0.019786464
3	0xbcb8441c	-0.022493415
4	0xbd8e949c	-0.06961939
5	0x3cd1da17	0.025616689
6	0xbcbf1d88	-0.023329511
7	0x3cd18cea	0.025579888
8	0x3cdeedad	0.027212942
9	0x3ca7f47e	0.020502325
10	0xbb472719	-0.0030388294
11	0xbd82e6cc	-0.06391677
12	0xbd0be6ce	-0.03415566
13	0x3c871e78	0.01649402
14	0x3d10df3a	0.035369135
15	0x3bbc7c4e	0.005752123
16	0x3c94b5a9	0.018153029
17	0x3d3a602e	0.04550188
18	0x3d16f9eb	0.036859434
19	0x3d7d76b4	0.061880782
20	0x3ce506e4	0.027957387
21	0xbd65f472	-0.056141324
22	0x3cb3032f	0.021852104
23	0x3d38ad7f	0.045087334
24	0xba342ec2	-0.00068734225
25	0xbcf54f42	-0.02994502
26	0x3b0f8601	0.002189994
27	0x3d387bd2	0.04503996
28	0x3d6b192c	0.057397053
29	0xbcbebe41	-0.02328408
30	0xbcdec7b8	-0.027194843
31	0xbc61f934	-0.013792325
32	0x3caa0848	0.020755902
33	0x3cbdf3fc	0.02318763
34	0xbd095aad	-0.03353374
35	0x3c64e9f3	0.013971793
36	0x3d0aeb19	0.033915613
37	0x3ca09eab	0.019606909
38	0xbcf63e38	-0.030058965
39	0xbd6575fb	-0.056020718
40	0x3d2de15e	0.042451255
41	0xbd0a7a7f	-0.033808228
42	0x3d3379e9	0.043817434
43	0x3c049378	0.0080918
44	0x3bc1f029	0.005918522
45	0xbc5c99a0	-0.013464361
46	0x3d4049dc	0.046945438
47	0xbc8fca00	-0.017552376
48	0x3d061e3a	0.03274367
49	0x3cd3c86f	0.02585241
50	0x3c9c4470	0.019075602
51	0x3af16200	0.0018416047
52	0xbd385ed9	-0.04501233
53	0xbd130d13	-0.03590114
54	0xbcc5ca67	-0.024144365
55	0xbd481fce	-0.048858456
56	0x3bdec7ac	0.006798705
57	0xbd593418	-0.053028196
58	0xbc85d77f	-0.016338108
59	0x3cc5dcbc	0.024153106
60	0xba080f9f	-0.0005190316
61	0xbd60a9fa	-0.054849602
62	0x3c6464f3	0.013940084
63	0xbc735bae	-0.014853401
64	0xbd2d4ca5	-0.042309422
65	0x3d1d75b3	0.038442325
66	0xbc4787b8	-0.012178354
67	0xbcccb187	-0.024986995
68	0xbd12cc3e	-0.03583931
69	0x3d0af685	0.033926506
70	0xbd7f697e	-0.062356465
71	0x3d089133	0.033341598
72	0x3cf0257c	0.029314749
73	0x3c876ad7	0.016530437
74	0x3cf5a7b0	0.029987186
75	0xbc489138	-0.012241654
76	0xbd1af3bf	-0.03783011
77	0xbd6a6035	-0.057220656
78	0xbd7e0de5	-0.06202497
79	0x3d71daa8	0.059046417
80	0xbc51579c	-0.012777235
81	0xbd61ccb3	-0.055126857
82	0x3d5e2760	0.05423677
83	0x3cca6bd4	0.02470962
84	0x3b7cd852	0.0038581085
85	0x3c2a554b	0.010396312
86	0xbc8732eb	-0.016503772
87	0xbcb90075	-0.022583226
88	0x3d19dc52	0.03756363
89	0x3cf5fa30	0.030026525
90	0x3c614f63	0.013751837
91	0xbc1cfa68	-0.009581186
92	0x3c8b10f8	0.016975865
93	0xbc1d47b1	-0.009599612
94	0x3d349fb2	0.04409761
95	0x3b377098	0.0027990695
96	0xbb4ea832	-0.0031533358
97	0xbd4ea5bd	-0.05045103
98	0xba7e01e2	-0.00096896116
99	0x3a6b152e	0.00089676946
100	0xbce60239	-0.028077232
101	0x3cdfe919	0.02733283
102	0x3d19ca6a	0.037546553
103	0xbd5a7739	-0.053336356
104	0x3c9de4ee	0.019274201
105	0x3d224408	0.03961566
106	0xbd825950	-0.06364691
107	0xbc0aba87	-0.008467323
108	0x3b92f1c0	0.0044843853
109	0xbd46d81c	-0.04854594
110	0xbba2dbb0	-0.0049700364
111	0x3bf7dc6f	0.0075641195
112	0x3d1f91d7	0.038957443
113	0x3cef8521	0.029238285
114	0xbcfbca87	-0.030736221
115	0xbd8d084e	-0.068863496
116	0xbbce785d	-0.0063009695
117	0xbd04af40	-0.032393694
118	0xbc360d1d	-0.011111525
119	0x3d341a62	0.043970473
120	0xbb78676c	-0.003790344
121	0xbd3a4138	-0.045472354
122	0x3cb2cba0	0.021825612
123	0x3d4823c6	0.04886224
124	0x3d42b208	0.047533065
125	0x3cae3662	0.021266166
126	0x3be4aa90	0.0069783404
127	0x3d332922	0.0437404
128	0xbd6d635e	-0.057956092
129	0xbca14607	-0.019686712
130	0xbd1d4260	-0.03839338
131	0xbd9226d1	-0.0713631
132	0xbd93ebf7	-0.07222741
133	0x3c601f34	0.013679314
134	0x3d201644	0.039083734
135	0xbc9931fa	-0.018700588
136	0xbc5c915b	-0.01346239
137	0xbca5957c	-0.020212881
138	0x3cb9e2b9	0.022691118
139	0xbd749f46	-0.059722207
140	0x3d04a06b	0.03237955
141	0xbd60bb72	-0.05486626
142	0xbd140d24	-0.036145344
143	0xbb485814	-0.0030570077
144	0xbd6f263a	-0.058386065
145	0xbccf28e3	-0.025288051
146	0x3d440923	0.047860276
147	0xbd4b4cab	-0.049633663
148	0xbd767028	-0.060165554
149	0x3cb0b40d	0.02157023
150	0xbd236b90	-0.0398975
151	0xbd5b2378	-0.053500623
152	0xba016227	-0.00049355853
153	0xbc2bd178	-0.010486953
154	0xbd734b25	-0.059397835
155	0x3b5e24ad	0.0033896372
156	0xbd6eed7e	-0.05833196
157	0x3d424dd1	0.047437493
158	0xbd3f5fe6	-0.046722315
159	0xbd5b240a	-0.053501166
160	0x3d3cbf53	0.0460809
161	0xbd6004e7	-0.054692175
162	0x3a800620	0.000976745
163	0xbcfa3d95	-0.030546943
164	0xbd49c8ac	-0.04926364
165	0xbcae0998	-0.021244809
166	0xbbfc1778	-0.0076932274
167	0xbd8642ff	-0.06555747
168	0xbb29d86b	-0.0025916349
169	0xbd1ac34b	-0.037783902
170	0xbd0be856	-0.03415712
171	0x3cc33b0e	0.02383187
172	0xbd4369c8	-0.047708303
173	0x3d2fc284	0.042910114
174	0x3d28462f	0.041082557
175	0xbd456b70	-0.048198164
176	0xbd8d8830	-0.06910741
177	0xbd299963	-0.041406047
178	0xbd348b92	-0.044078417
179	0xbb144240	-0.0022622496
180	0x3c094b11	0.008379714
181	0xbc9b64d6	-0.01896898
182	0xbd67c732	-0.05658645
183	0xbd92bb42	-0.07164623
184	0xbd3d583f	-0.046226736
185	0x3cbe6169	0.023239808
186	0xbd35845d	-0.044315685
187	0xbd54cf58	-0.05195555
188	0xbc403720	-0.011731893
189	0xbd81e3fe	-0.06342314
190	0xbb94ec20	-0.00454475
191	0xbd0d93b8	-0.034564704
192	0xbd295ed9	-0.04135022
193	0xbd50b8c2	-0.05095745
194	0xbd86d598	-0.065837085
195	0x3c700f89	0.014652141
196	0xbd0e9b2c	-0.034815952
197	0x3cc2ba23	0.023770398
198	0xbc4bf258	-0.012447916
199	0xbd36f26a	-0.044664778
200	0xbd0ed0f8	-0.034867257
201	0x3d38279f	0.04495966
202	0xbd5c3b01	-0.053767208
203	0xbd3dea20	-0.046365857
204	0x3d413400	0.04716873
205	0x3cee373c	0.029079072
206	0x3cd0c657	0.0254852
207	0x3cb536d4	0.02212087
208	0xb9f56500	-0.00046805292
209	0x3b829870	0.003985457
210	0xbc1ec4a7	-0.00969044
211	0x3d6062e2	0.054781802
212	0xbc91b48f	-0.017786292
213	0xbd38fa64	-0.045160666
214	0x3cc6f4e0	0.024286687
215	0x3c51baeb	0.012800912
216	0xbbd31de1	-0.006442771
217	0xbcc8807d	-0.02447533
218	0x3d387633	0.0450346
219	0xbd4b7aa3	-0.049677502
220	0x3c5ecdd8	0.013598882
221	0xbd1ff5c2	-0.039052732
222	0xbb8402e0	-0.004028663
223	0x3ce55587	0.027994884
224	0x3d122e5f	0.035688754
225	0xbc3b645e	-0.011437504
226	0xbd806fb8	-0.06271309
227	0x3d4ee750	0.050513566
228	0xbd66236b	-0.05618612
229	0x3d2bfbac	0.04198806
230	0x3b849814	0.0040464494
231	0xbd15e2e5	-0.036593337
232	0x3c729dc8	0.014808126
233	0x3cf63914	0.030056514
234	0xbc1c2978	-0.009531371
235	0x3b820289	0.0039675874
236	0xbd601e2b	-0.05471627
237	0xbcbc50d4	-0.02298776
238	0xbd1a992c	-0.037743732
239	0xbd244d6d	-0.0401129
240	0xbd4f21f0	-0.050569475
241	0x3c4d82c5	0.012543385
242	0x3b1e7efc	0.0024184575
243	0xbc8cb115	-0.017174283
244	0xbc6f9eb3	-0.014625239
245	0x3cf35fa0	0.029708683
246	0x3c90de48	0.017684117
247	0xbcf2a42c	-0.029619299
248	0x3c807c60	0.015684307
249	0xbd8a049f	-0.06739163
250	0xbd268a6e	-0.04065936
251	0xbc453e90	-0.012038842
252	0xbb05df3a	-0.0020427243
253	0xbd6a4bb2	-0.057201095
254	0x3d063b4c	0.032771394
255	0xbd3d07cd	-0.046150018

2.bias f4 [256]
0	0xbd866539	-0.065622754
1	0xbc58c102	-0.01322961
2	0x4198b787	19.089613
3	0xbdaf4e74	-0.085598856
4	0xbc2d8c1b	-0.010592486
5	0x41a95947	21.168592
6	0x3c820490	0.015871316
7	0xbb8b2544	-0.004246386
8	0x41a8dbc5	21.10731
9	0x3d73dc37	0.059536185
10	0x41df607b	27.92211
11	0x41b37fc1	22.43738
12	0xbd8021aa	-0.06256421
13	0xbd7dd669	-0.061972056
14	0x40c8922c	6.2678432
15	0x3dbbbf9f	0.09167408
16	0xbd726de6	-0.05918684
17	0xbcabd810	-0.02097705
18	0xbd70730e	-0.058703475
19	0xbd39d3ec	-0.04536812
20	0xc074e6ee	-3.8265948
21	0x3c841b73	0.01612637
22	0xbbe907d5	-0.0071115294
23	0x3cde775c	0.027156524
24	0xbd40732d	-0.04698484
25	0xbd0f3abc	-0.034968123
26	0xbd8a4e3a	-0.06753202
27	0x419462aa	18.548176
28	0xc223d531	-40.958195
29	0x3a861aba	0.0010231354
30	0xbcddb7fc	-0.02706527
31	0xbdbd770f	-0.09251224
32	0xbde01c7f	-0.10942935
33	0x419c85af	19.565275
34	0xbcd993c7	-0.026559724
35	0xbc4c4863	-0.01246843
36	0x3d5ca4ba	0.053868033
37	0xbeced068	-0.40393376
38	0x416bd753	14.740069
39	0xc1c15f8f	-24.17166
40	0xbd8732a3	-0.06601455
41	0x41ad5be4	21.669868
42	0x41140f56	9.253744
43	0x3c71d31a	0.014759803
44	0xbd974ef4	-0.07388106
45	0x3da4efa0	0.08053517
46	0x40a8f639	5.2800565
47	0x3d56c3b4	0.05243273
48	0xbd30ddfd	-0.043180455
49	0xbd0b5fe6	-0.034027003
50	0xbd96e183	-0.07367232
51	0x3ca864e9	0.02055593
52	0xb99bbe7e	-0.00029705832
53	0xc185de95	-16.733683
54	0xbc6e127f	-0.014530777
55	0xbd15c385	-0.036563415
56	0x40096d5b	2.1472995
57	0xbd3617ea	-0.0444564
58	0xbd854071	-0.06506432
59	0x3d11669b	0.035498243
60	0xbd2df070	-0.042465627
61	0xbd1cfc48	-0.03832653
62	0x3ca31959	0.019909548
63	0x3d4f62e6	0.050631426
64	0x4241e47d	48.473133
65	0x40bf561e	5.9792624
66	0xbd03e551	-0.032201115
67	0xbd81599a	-0.06315918
68	0xbd495bfd	-0.049159992
69	0x3d47b307	0.04875472
70	0xc0838f6c	-4.1112576
71	0x3c428c96	0.011874339
72	0xc06ee8b4	-3.732953
73	0xbce268c0	-0.02763784
74	0xbd519e0a	-0.05117611
75	0xbc4729fd	-0.012156007
76	0xc05d5264	-3.4581537
77	0xbe43799a	-0.19089356
78	0xbd86d225	-0.06583051
79	0xc1a169e7	-20.17671
80	0xc1862170	-16.766327
81	0xbc9bcff5	-0.01902006
82	0x3cbbe4ad	0.02293619
83	0xbd8387d0	-0.064223886
84	0xc253878f	-52.88238
85	0xbd49dae8	-0.04928103
86	0x3f6595f2	0.89681923
87	0x41c24071	24.281466
88	0x3c30ffd0	0.010803178
89	0x3eb88c14	0.3604437
90	0x3c864e6b	0.016394814
91	0xbbc3f3c1	-0.0059799855
92	0xbd09f83b	-0.033683997
93	0xbd5cf802	-0.053947456
94	0xc21c8130	-39.12616
95	0x3d46c1d2	0.048524685
96	0xbd87065d	-0.065930106
97	0x4179a405	15.602544
98	0x3d53a069	0.05166665
99	0xbd7fcec2	-0.06245304
100	0x41217951	10.092118
101	0x412cbfc8	10.796822
102	0xbc85d533	-0.016337013
103	0xbd3469de	-0.044046275
104	0x3d9b31c9	0.07577855
105	0x3da9f8bf	0.08299398
106	0xbc91776a	-0.017757136
107	0x4100e15a	8.055017
108	0x3d2f3040	0.042770624
109	0xbcf37d27	-0.029722763
110	0xba72dca1	-0.00092644437
111	0xbd42aa9b	-0.047525983
112	0x4122ad6f	10.167342
113	0x3a7ad180	0.0009567961
114	0x3c27d6db	0.010244097
115	0xbd3e374f	-0.046439465
116	0x409dacea	4.9273577
117	0xbd1ad5c3	-0.037801515
118	0xc1472b3d	-12.448056
119	0xbd60945b	-0.054828983
120	0xbd5741f9	-0.05255315
121	0x40981d57	4.7535815
122	0xc1cb78a1	-25.4339
123	0xbff4067f	-1.9064482
124	0x404f41c1	3.2383883
125	0x3e282888	0.16421711
126	0x3d18c75b	0.037299495
127	0x3cbd04f3	0.023073649
128	0x41bda50a	23.705585
129	0xbcd3c234	-0.02584944
130	0xbd508c45	-0.05091502
131	0x3d43e756	0.04782804
132	0x41b27133	22.305273
133	0x3c22a085	0.009925966
134	0x3b8d4508	0.0043112077
135	0xbd7df827	-0.062004235
136	0xbd5535ef	-0.05205339
137	0xbd87a021	-0.06622339
138	0xc282248e	-65.071396
139	0xb9e91a3f	-0.00044460778
140	0xbd13a368	-0.03604451
141	0x41549ab7	13.287772
142	0x3d2d6540	0.042332888
143	0xbd8eb2f5	-0.06967727
144	0xbd6ea162	-0.058259375
145	0xbd77a5c8	-0.060460836
146	0xbe4db378	-0.20087993
147	0x41d615b2	26.760593
148	0x407be70e	3.9359775
149	0x3cb88d17	0.022528214
150	0xbd5c2fe0	-0.053756595
151	0xbcec3a81	-0.02883649
152	0xbd4843ad	-0.048892666
153	0x40b1ffd2	5.562478
154	0xbda2f1e0	-0.0795629
155	0x3b6dc94c	0.0036283312
156	0xbcd9e321	-0.026597561
157	0xbd5e3026	-0.054245137
158	0x40ef229a	7.472974
159	0x41990153	19.125647
160	0x3d34954f	0.044087704
161	0xbc22d3b6	-0.009938171
162	0x40f0835f	7.5160365
163	0xbc2d0b00	-0.010561705
164	0x3ff2d4e1	1.8971215
165	0xbcdec329	-0.027192669
166	0x4109e3f1	8.61815
167	0xbd158ae6	-0.036509417
168	0x3c19ef2f	0.009395405
169	0x3ba30dad	0.0049759955
170	0xbd4fee96	-0.050764643
171	0x40a21905	5.065554
172	0xbbcb2d9f	-0.006200507
173	0x3d230f43	0.039809477
174	0xbd8492e8	-0.06473333
175	0xbd5566fd	-0.05210017
176	0xbd3c2538	-0.045933932
177	0x4129ce23	10.612826
178	0x41eeb5a3	29.83869
179	0x3ff6c9bd	1.9280316
180	0x40f82b81	7.7553105
181	0x3c0d82b4	0.008637119
182	0xbd6f4b74	-0.058421567
183	0x40a25931	5.0733876
184	0x3a9641f0	0.0011463743
185	0xbd8a776d	-0.0676106
186	0x3fe00644	1.7501912
187	0x41d332cf	26.399809
188	0xbbd3742f	-0.006453059
189	0xbd82570e	-0.063642606
190	0x3a8c6743	0.0010711927
191	0x3d3414aa	0.04396502
192	0x3d5b9954	0.053613022
193	0x3b44a650	0.0030006357
194	0xbd75dcdd	-0.060025085
195	0xbdbbf73e	-0.09178017
196	0xbd4d76c8	-0.050162107
197	0x3c40082a	0.011720696
198	0xbda028b1	-0.07820261
199	0xbce5be16	-0.028044742
200	0x41a7ecc8	20.990616
201	0x3c8d2330	0.017228693
202	0xbd5db395	-0.05412634
203	0xbd94ac98	-0.07259482
204	0xbc22cb1b	-0.009936119
205	0x4131f744	11.122868
206	0x41a22333	20.267187
207	0x414c8b83	12.7840605
208	0xbd8a59a0	-0.06755376
209	0xbc8eb31b	-0.017419389
210	0x3c77c6c4	0.015123073
211	0x4222ae54	40.670242
212	0xbc072158	-0.008247696
213	0x418c91c1	17.571169
214	0xbc615ace	-0.01375456
215	0x40b105f6	5.5319777
216	0x3cb4e837	0.022083385
217	0xbcf1802b	-0.02948006
218	0x412fdd42	10.991518
219	0xbcc896e1	-0.024486007
220	0xbd91d279	-0.071202226
221	0xbd2c859a	-0.0421196
222	0x404736cf	3.1127203
223	0xbb88d0d3	-0.0041752844
224	0xbd853c40	-0.065056324
225	0x4159a77c	13.60339
226	0xbd2a24f8	-0.041539162
227	0x41fdf605	31.745127
228	0xbd108309	-0.035281215
229	0xbd1b4b67	-0.037913706
230	0x408257a3	4.073198
231	0xbbb97f70	-0.0056609437
232	0x3f6a52a6	0.9153236
233	0xbc31f8b5	-0.010862519
234	0xbd8fd8c1	-0.070237644
235	0x3c43f97f	0.01196134
236	0xbd1003b6	-0.03515979
237	0x3d265ce9	0.04061595
238	0xbd81eca7	-0.06343966
239	0xbd963aa3	-0.07335403
240	0xc1e4dbd0	-28.60733
241	0x421e9657	39.646816
242	0xc1807178	-16.055405
243	0x3bf083cf	0.0073399316
244	0xbd58ea52	-0.05295784
245	0x41513002	13.074221
246	0xbcc4b734	-0.02401314
247	0xc12e762d	-10.9038515
248	0xbdaca6cb	-0.08430251
249	0x3c2d8041	0.01058966
250	0x41a1a936	20.207623
251	0x39b8298d	0.00035126173
252	0xbc5173f0	-0.012783989
253	0x41931a77	18.387922
254	0xbd16a5d6	-0.036779247
255	0x3b8c5391	0.004282423

4.weight f4 [256, 256]
0	0xbd6a7f76	-0.057250462
1	0x3bd4a8c0	0.006489843
2	0xbda04723	-0.07826068
3	0x3d50cd62	0.05097712
4	0x3a06e480	0.00051457435
5	0xbc8022d1	-0.015641602
6	0xbc81d208	-0.015847221
7	0x3be13485	0.006872716
8	0xbd2df25e	-0.042467467
9	0x3be4feb0	0.006988369
10	0x3c3b7e11	0.011443631
11	0xbda8c408	-0.08240515
12	0x3d4797f2	0.04872889
13	0xbd74f334	-0.05980225
14	0xbd6d1401	-0.057880405
15	0xbd2cde4e	-0.042204194
16	0x3b3ffb60	0.0029294118
17	0xbd2afd1e	-0.041745298
18	0xbc998804	-0.018741615
19	0x3cbbb55c	0.022913627
20	0xbd15363b	-0.03642867
21	0xbd5ed4d1	-0.054402176
22	0x3b625920	0.0034537986
23	0x3d63ff3e	0.05566334
24	0x3d3a8ee8	0.045546442
25	0x3cd0273c	0.025409333
26	0x3d6cb38c	0.057788417
27	0x3cf706ed	0.03015467
28	0xbcfe23cd	-0.03102293
29	0xbd5f1ea6	-0.054472588
30	0x3b7c77a5	0.0038523462
31	0xbd3ffbec	-0.04687111
32	0xbd4fd386	-0.050738834
33	0xbbadd5b0	-0.0053050146
34	0xbd6951ce	-0.05696278
35	0xbcc99204	-0.024605758
36	0x3b8f656a	0.004376103
37	0xbd2fb3f3	-0.042896222
38	0x3cac1b77	0.02100919
39	0xbd3c244c	-0.045933053
40	0xbc8ebad8	-0.017423078
41	0xbc6627c4	-0.014047567
42	0xbd2142e6	-0.03937044
43	0x3cfb8b5c	0.0307061
44	0xbd721f27	-0.05911174
45	0x3cb862d4	0.022508062
46	0xbd51e6ee	-0.051245622
47	0xbd675412	-0.05647666
48	0x3cda5f88	0.026656881
49	0x3ceb2fb8	0.028709278
50	0xbc08d7eb	-0.00835226
51	0x3cc4aaf4	0.024007298
52	0x3c132ee0	0.008983344
53	0xbdb305af	-0.087413184
54	0x3ca5fb0c	0.02026131
55	0xbd658dc6	-0.05604341
56	0x3c9de113	0.019272363
57	0x3d07d2fe	0.033160202
58	0xbd5732e4	-0.052538767
59	0xbd6a75f2	-0.057241388
60	0x3cce0a78	0.025151476
61	0x3c5edca0	0.013602406
62	0x3c83f744	0.016109116
63	0xbc30fe98	-0.010802887
64	0xbda5daa2	-0.080983415
65	0x3c582820	0.01319316
66	0x3cf1eb5b	0.029531172
67	0x3cd82e00	0.026389122
68	0x3d1034ce	0.03520661
69	0xbbd20a30	-0.006409906
70	0xbd519770	-0.051169813
71	0x3d2a6797	0.041602697
72	0xbd635943	-0.05550505
73	0xbcf7cd2c	-0.0302492
74	0xbd4c6b76	-0.04990717
75	0xbd087572	-0.03331513
76	0xbbba0097	-0.00567634
77	0xbcf7d796	-0.030254167
78	0x3cde6718	0.027148768
79	0x3cc0c4c7	0.02353133
80	0xbc2da438	-0.010598235
81	0x3c19e638	0.009393267
82	0x3d461bd8	0.048366398
83	0xbc5a8f58	-0.01333984
84	0xbd041606	-0.032247566
85	0xbafb6bf2	-0.001918195
86	0xbd31bbed	-0.04339211
87	0xbd9cd008	-0.07656866
88	0x3d144fca	0.036208905
89	0x3cb46558	0.02202098
90	0x3c097b1b	0.008391167
91	0xbc8831ef	-0.016625373
92	0xbc3d7ee0	-0.011565894
93	0xbca5e038	-0.020248517
94	0xbca13edf	-0.0196833
95	0x3d77046c	0.06030695
96	0x3cc0e3a8	0.023546055
97	0xbd820136	-0.06347887
98	0x3be65d20	0.0070301443
99	0xbb963640	-0.004584104
100	0x3d584e8a	0.052809276
101	0xbdd32f77	-0.103117876
102	0x3d4877b0	0.048942268
103	0xbd557f98	-0.052123636
104	0x3bc6222b	0.0060465536
105	0x3ce17ab6	0.027524333
106	0x3c925548	0.01786293
107	0xbd951c68	-0.07280809
108	0x3ccc9290	0.02497223
109	0xbd6651a2	-0.056230195
110	0xbc3fd543	-0.01170856
111	0xbd6d1dd2	-0.057889767
112	0xbd9cea01	-0.0766182
113	0x3d2f39ee	0.042779855
114	0xbc9c4888	-0.019077554
115	0x3cd4da24	0.025982924
116	0xba75f63c	-0.00093827
117	0xbc8646f8	-0.016391262
118	0x3c4c77a8	0.0124797
119	0xbc5907e0	-0.013246506
120	0x3d05349e	0.032520883
121	0xbdb226fc	-0.08698842
122	0xbd79760e	-0.0609036
123	0xbd5172db	-0.051134925
124	0x3c3af870	0.011411771
125	0xbdc1b30a	-0.09457977
126	0x3d493c68	0.049129874
127	0x3d742e26	0.059614323
128	0xba8d83ba	-0.0010796704
129	0xbcf9a728	-0.030475214
130	0xbd69cc96	-0.057079874
131	0xbd41c4a0	-0.047306657
132	0x3d0f0596	0.034917437
133	0xbd4afdea	-0.049558558
134	0x3bf61120	0.0075093657
135	0xbcfdd96c	-0.030987464
136	0x3c0c2f85	0.008556251
137	0xbd43a254	-0.04776223
138	0x3bf42fa5	0.0074519687
139	0xbd780ca4	-0.06055893
140	0xbd57cdfa	-0.05268667
141	0xbd430964	-0.047616377
142	0x3c3127f8	0.010812752
143	0xbceb2be4	-0.028707452
144	0x3d5fcfea	0.05464164
145	0xbcd3d68c	-0.02585914
146	0x3bba10b0	0.005678259
147	0xbdb9d69f	-0.09074139
148	0xbcd11020	-0.025520384
149	0xbcb71c7c	-0.02235245
150	0x3d443852	0.047905274
151	0x3a098f00	0.0005247444
152	0x3d54cfc6	0.05195596
153	0x3bae7505	0.0053240084
154	0xbc99cd5c	-0.01877468
155	0xbd6e7fde	-0.058227412
156	0x3d38cab0	0.045115173
157	0x3c84068c	0.016116403
158	0xbd55e231	-0.052217666
159	0xbd937a84	-0.072011024
160	0x3cab61f0	0.020920724
161	0x3d36337a	0.044482686
162	0x3d4b9318	0.049700826
163	0xbd31d69e	-0.043417566
164	0x3c26a1a5	0.010170375
165	0x3bdb2980	0.006688297
166	0xbd961179	-0.073275514
167	0x3d68e192	0.056855746
168	0x3d7f8428	0.062381893
169	0xbd2bebcc	-0.04197292
170	0x3d7191e4	0.058977023
171	0xbd366b75	-0.044536073
172	0x3c4c6000	0.01247406
173	0xbd5837b8	-0.052787513
174	0x3d5ec57a	0.054387547
175	0xbc927b14	-0.017880954
176	0xbce10884	-0.02746988
177	0x3d2e36ea	0.04253284
178	0x3d23d510	0.039998114
179	0x3d25053f	0.040288206
180	0xbdc14630	-0.09437215
181	0xbd4eb698	-0.050467104
182	0xbd6ee9fc	-0.058328614
183	0xbb2240eb	-0.0024757932
184	0xbd91094f	-0.070818536
185	0xbba1aa20	-0.0049336106
186	0x3cb18b60	0.021672904
187	0xbdd9dc3e	-0.10637711
188	0x3c36d918	0.011160158
189	0xbd680ab4	-0.056650832
190	0x3cef81a0	0.029236615
191	0x3bd19510	0.0063959435
192	0xbc224dd8	-0.009906255
193	0x3d5920f8	0.053009957
194	0xbd0cd2ae	-0.034380607
195	0x3d755bd0	0.059902012
196	0x3d3f3a76	0.046686612
197	0xbba157d0	-0.004923798
198	0xbba0cbd0	-0.004907109
199	0xbd83ad08	-0.064294875
200	0xbd56f0e0	-0.05247581
201	0xbd08193a	-0.033227183
202	0xbb367660	-0.0027841553
203	0xbd4c4d10	-0.04987818
204	0x3b9eb500	0.004843354
205	0xbd067db0	-0.03283471
206	0x3c82b67c	0.015956156
207	0xbce43c17	-0.027860684
208	0x3d247692	0.04015214
209	0xbcd8f738	-0.02648507
210	0xbcb1596c	-0.021649085
211	0xbdc9b90f	-0.0984975
212	0xbd4e5f44	-0.05038382
213	0xbc8e67bc	-0.017383449
214	0xbc3a49db	-0.011370148
215	0xbd6d97e4	-0.058006182
216	0x3d6616ec	0.056174204
217	0x3ce583c5	0.028016934
218	0xbc9cc700	-0.01913786
219	0xbc95c360	-0.018281639
220	0x3d4d997c	0.050195202
221	0xbd52445a	-0.051334716
222	0xbc1d337c	-0.009594794
223	0xbcda1504	-0.02662135
224	0x3d1755aa	0.03694693
225	0xbceed78b	-0.029155513
226	0x3d7c1370	0.061541975
227	0x3d062f21	0.03275979
228	0xbd7dafc6	-0.06193521
229	0x3d1627fa	0.03665922
230	0xbd26a46f	-0.04068416
231	0x3ca91b60	0.020642936
232	0xbd58ac89	-0.052898917
233	0xbd7e05a4	-0.062017098
234	0x3cfab33c	0.030603044
235	0xbcf03358	-0.029321358
236	0x3bf07640	0.0073383152
237	0x3cbd8034	0.023132421
238	0xbc528550	-0.012849167
239	0x3ce2e74c	0.027698182
240	0x3ce706a4	0.028201409
241	0xbd02f207	-0.031969097
242	0xbc6022c3	-0.013680163
243	0xbd2818e4	-0.041039363
244	0xbd7a51f6	-0.06111332
245	0xbd024d41	-0.031811956
246	0xbd621080	-0.055191517
247	0xbcd5b51c	-0.026087336
248	0xbc82e0fc	-0.015976422
249	0x3c67d190	0.014149085
250	0xbd1f122b	-0.038835686
251	0xbd7e5491	-0.062092368
252	0x3d3205c6	0.043462537
253	0xbd695cdd	-0.056973327
254	0x3d1f2f62	0.038863547
255	0x3d123031	0.03569049

4.bias f4 [256]
0	0xbdc9b20d	-0.098484136
1	0x406c3540	3.6907501
2	0xbf9be170	-1.2178173
3	0x41f19d53	30.201818
4	0x42000f4a	32.01493
5	0x41fe1de9	31.764605
6	0x3bbeb248	0.0058195926
7	0xbc05af05	-0.008159404
8	0xc10d0371	-8.81334
9	0xbc47e8d2	-0.012201505
10	0x4202dce7	32.715725
11	0xbd437cc9	-0.047726426
12	0x3d654adb	0.05597959
13	0x4201b568	32.427155
14	0xbf179560	-0.59212303
15	0xc15c0eff	-13.753661
16	0xbcc95122	-0.02457482
17	0xbda6ad35	-0.08138505
18	0x41d1380b	26.152365
19	0x40e1108d	7.0332704
20	0xbdf617ab	-0.12016233
21	0x420053d2	32.081856
22	0x414c3b92	12.764544
23	0xbc1a8d42	-0.009433093
24	0xc18d1557	-17.63542
25	0x41f793dc	30.947197
26	0x4202ac87	32.668484
27	0xc10a7cf6	-8.655508
28	0xbe54240c	-0.20716876
29	0xbd91db5b	-0.07121917
30	0xbd2f59cc	-0.042810246
31	0xbcde3a5f	-0.027127443
32	0xc2642e35	-57.045124
33	0x417570a4	15.34
34	0xbcde364f	-0.027125506
35	0xbce73c67	-0.028227044
36	0x40258d73	2.5867584
37	0xc2304eb9	-44.076878
38	0xbd1cbf26	-0.03826823
39	0x41f51653	30.6359
40	0x41fc4884	31.535408
41	0x4249503d	50.328358
42	0x409c2316	4.879283
43	0xc0b9cdf3	-5.8063903
44	0xc2583c3c	-54.058823
45	0xbfc20b09	-1.5159618
46	0xbe07c4a1	-0.13258602
47	0xbdd1125d	-0.10208581
48	0xbd87140e	-0.06595622
49	0xbc36fe29	-0.011168995
50	0x42018f3a	32.38987
51	0x42041039	33.015842
52	0xbdf97e4b	-0.121822916
53	0xbf5b6025	-0.8569358
54	0x4208a4bd	34.160877
55	0xc228dcbb	-42.215557
56	0x417cbc34	15.795948
57	0xc16bfcee	-14.74925
58	0xbdec3278	-0.11533064
59	0x40095ed3	2.1464126
60	0xbe1ad137	-0.15118872
61	0x42096633	34.349804
62	0x42055da5	33.34145
63	0x41fdf749	31.745745
64	0x4203e944	32.9778
65	0x41edd8e9	29.730913
66	0xbd5aea0f	-0.053445872
67	0x4167f453	14.497149
68	0xbd354a25	-0.044260163
69	0x3bf94737	0.0076073664
70	0xbd200b15	-0.03907307
71	0x41ff0638	31.878036
72	0x3cc5ba9a	0.02413683
73	0x420746b9	33.819065
74	0x4200869a	32.131447
75	0xc1a9527b	-21.165274
76	0xbca8f991	-0.020626815
77	0x4208ed01	34.23145
78	0x42030f06	32.76467
79	0xbc1450e7	-0.009052492
80	0x420153a3	32.331676
81	0x3c642ce1	0.013926716
82	0x41247b65	10.280126
83	0xbdbb7ea7	-0.091550164
84	0x40ee06fb	7.438352
85	0x42048d7f	33.13818
86	0xbcf0b973	-0.029385304
87	0xbd3b5262	-0.045732863
88	0xc1ea98b9	-29.324572
89	0x42017e45	32.37331
90	0xbdb8972c	-0.09013209
91	0x41fe0465	31.752146
92	0xbd9d28ee	-0.07673822
93	0xbce33aff	-0.027738092
94	0xbc812922	-0.015766684
95	0xc04dc6ed	-3.2152665
96	0x3d9df0ee	0.07711969
97	0x4202039f	32.503536
98	0x41fa3280	31.274658
99	0x42062853	33.53938
100	0xbe15197b	-0.14560501
101	0xc2563a67	-53.557034
102	0xbda11324	-0.07864979
103	0xbdef2b6b	-0.11678203
104	0xc21b6da1	-38.85706
105	0xbda00842	-0.07814075
106	0x41fe9b61	31.825869
107	0xbb86e11b	-0.00411619
108	0xbd421b7e	-0.0473895
109	0xbda7d9c7	-0.081958346
110	0xbc6e6de1	-0.014552564
111	0xbdc2617c	-0.0949125
112	0x41ade788	21.738052
113	0x4204b730	33.178894
114	0x41f3a277	30.454329
115	0xbd03cf20	-0.03217995
116	0xbdcfc504	-0.101449996
117	0x42016fe4	32.35927
118	0x41f62eb7	30.77281
119	0x41fe8122	31.813053
120	0x3cb87e74	0.022521235
121	0x42068bee	33.63665
122	0x3ca2c0e6	0.019867372
123	0xbf862c01	-1.0482179
124	0x41864b78	16.78685
125	0xc21baf59	-38.921238
126	0xbd65d55a	-0.05611167
127	0x3ba003c8	0.0048832633
128	0xbd4ca84b	-0.049965184
129	0xbcee81fa	-0.029114712
130	0xc1663df1	-14.390122
131	0x3c8283ea	0.015932042
132	0xbf820da8	-1.0160418
133	0x42019a55	32.400715
134	0xbd742252	-0.059603043
135	0xbd7b60d1	-0.06137163
136	0xbe438866	-0.19095
137	0x41a8b178	21.086655
138	0xc2369b64	-45.65175
139	0x3c8d1a21	0.017224373
140	0x420cee21	35.232548
141	0x4208207c	34.031723
142	0xbcea379d	-0.028590972
143	0x41f2300f	30.273466
144	0xbe033e8a	-0.12816826
145	0x41799ce0	15.6008
146	0x41fcf9c1	31.62195
147	0x420191ff	32.392574
148	0x41859528	16.69783
149	0xbd3a2d3f	-0.045453306
150	0xbd830820	-0.06398034
151	0x4200b247	32.1741
152	0xbd30634b	-0.043063443
153	0xbd169d74	-0.036771253
154	0x4207fd9c	33.997665
155	0x4201d30f	32.456112
156	0xbd45c152	-0.048280068
157	0x3c0df1a8	0.008663572
158	0xbd82c6db	-0.06385585
159	0x41ae1a8c	21.762962
160	0x3b918bc1	0.004441709
161	0x41f14fe7	30.164015
162	0x3f95f79c	1.1716189
163	0x42073fcf	33.812313
164	0x41aba455	21.45524
165	0xbde49cb8	-0.11162704
166	0x42210f7c	40.26512
167	0xbdadb63e	-0.084820256
168	0xc0d6bc87	-6.7105136
169	0x424395e2	48.89637
170	0xbdbcd449	-0.09220178
171	0x40a59ee9	5.175648
172	0x4206033d	33.503162
173	0x4188a94d	17.082666
174	0x42024d7e	32.575676
175	0xbd51e390	-0.05124241
176	0x41fef4a0	31.869446
177	0x41f7f7b6	30.995953
178	0xbdb3875e	-0.087660536
179	0x41f738c5	30.90272
180	0x4186cd19	16.850145
181	0xc207f752	-33.991524
182	0x41297eae	10.593428
183	0x4203ef32	32.98359
184	0xb89a3a8b	-7.354197e-05
185	0x3d040539	0.032231543
186	0xbd675559	-0.05647788
187	0xbd8553c1	-0.065101154
188	0xbc2082c2	-0.0097968
189	0x42016b90	32.35504
190	0xc13fa9ed	-11.978986
191	0xbd8f7f15	-0.07006661
192	0xbc22f04a	-0.009944985
193	0xbd333410	-0.043750823
194	0x411b090a	9.689707
195	0xc144c218	-12.297386
196	0x41f49815	30.574259
197	0x3ba02db2	0.00488826
198	0xbd9a06b6	-0.07520811
199	0xc1cde7f8	-25.738266
200	0xbd903f01	-0.07043267
201	0x4200dead	32.217457
202	0xbdef4fe2	-0.11685158
203	0xbdac2809	-0.084060736
204	0xc172598a	-15.14686
205	0x420481fb	33.126934
206	0x3fbd089d	1.4768254
207	0x3d3763e2	0.04477299
208	0x41fbdf83	31.484137
209	0xc2208065	-40.125385
210	0x41fa5506	31.291515
211	0xbd04e62b	-0.032446068
212	0xbd82fff7	-0.06396478
213	0xbdd7611c	-0.10516569
214	0x4172929e	15.160795
215	0x410c500f	8.769546
216	0x41dd306f	27.64865
217	0xc18e8d3f	-17.818968
218	0xbc56b391	-0.013104335
219	0x3ebddab8	0.37080932
220	0x42043e20	33.06067
221	0x421dadb0	39.419617
222	0xbd027fe1	-0.031860236
223	0xc22598fb	-41.399395
224	0xbd1255fc	-0.035726532
225	0xc1448cf0	-12.284409
226	0x41edea5c	29.739433
227	0xbd8b1895	-0.06791798
228	0x41f3d21a	30.477589
229	0xc1191c04	-9.56934
230	0x4200ec8d	32.231007
231	0x42027e5f	32.62341
232	0x4210cdf5	36.20113
233	0xc2393e35	-46.31075
234	0x3c8aa90d	0.016926313
235	0x4205ddc2	33.46656
236	0x3c3a7a82	0.011381747
237	0xbdc0eea5	-0.09420518
238	0x4186ceaf	16.85092
239	0x42070b03	33.760754
240	0xc1a7ee5f	-20.991392
241	0x41db7862	27.43378
242	0x41faf169	31.367876
243	0x4201bba0	32.433228
244	0x4244dcd5	49.215656
245	0x3ccbfe46	0.02490152
246	0xbab3766d	-0.001369191
247	0xbb57d7f7	-0.0032935122
248	0x420657c0	33.585693
249	0x3cc64468	0.02420254
250	0xc0edd3fb	-7.4321265
251	0x41f740ad	30.90658
252	0x4203422c	32.81462
253	0xbd8d1174	-0.068880945
254	0xbd9b7d82	-0.07592298
255	0x41fdda8f	31.731718

6.weight f4 [4, 256]
0	0x3bac3591	0.005255409
1	0xbdc866a6	-0.09785204
2	0xc009e63b	-2.1546772
3	0x3ef58541	0.47953227
4	0x3eba203b	0.36352715
5	0x3ea0629c	0.31325233
6	0xbcc6fdd6	-0.02429096
7	0xbbc871c0	-0.0061170757
8	0x400af268	2.1710453
9	0xbd37ca7a	-0.04487083
10	0x3eb36976	0.35041398
11	0x3d336dc3	0.04380585
12	0x3c38ce59	0.011279666
13	0x3f5466ee	0.8296956
14	0xbe121cd6	-0.14268813
15	0x403db953	2.9644363
16	0x3d0d3821	0.034477357
17	0x3cb6519d	0.022255713
18	0x3ea20714	0.31646025
19	0x3fe0f5ff	1.7575072
20	0xbb11b5eb	-0.0022233676
21	0x3eba3bb3	0.36373672
22	0x3f87d134	1.0610719
23	0x3d50dc64	0.05099143
24	0x3fee6ae5	1.8626372
25	0x3e7c813f	0.24658678
26	0x3ebed763	0.37273702
27	0xc0458383	-3.0861518
28	0x3c172b16	0.009226581
29	0x3dbf455a	0.093394
30	0xbb482ed4	-0.003054549
31	0x3d334e8d	0.043776084
32	0xbfcf6e53	-1.6205543
33	0xbecf9ea4	-0.4055072
34	0x3d1301c8	0.03589037
35	0x3d95e2c0	0.0731864
36	0xc1be9f0f	-23.827665
37	0x3f48c30a	0.78422606
38	0xbd0c564a	-0.03426198
39	0x3ea9a473	0.33133277
40	0x3e8c7225	0.27430835
41	0x40255fe9	2.583979
42	0x3fceaa73	1.6145767
43	0x40c5903a	6.173856
44	0xc08cf9c3	-4.4054885
45	0x3fe0dcdf	1.7567405
46	0x3b4680e3	0.0030289225
47	0xbd0a834a	-0.033816613
48	0x3c4d71dc	0.012539353
49	0xbd57c8eb	-0.052681845
50	0x3e9c67e4	0.30548012
51	0x3ebff5b4	0.37492144
52	0xbd8e1fd2	-0.06939663
53	0xbfa2b74a	-1.2712185
54	0x3ee18de4	0.44053566
55	0x3fc975be	1.5739057
56	0x3ee39ea8	0.44456983
57	0xc12cd9fa	-10.803217
58	0x3ad5f89d	0.0016324703
59	0x3fa1f8cc	1.2654052
60	0x3a66b3d9	0.0008800603
61	0x3eafe382	0.34353262
62	0x3ea1fd26	0.3163845
63	0x3e8f9ef9	0.28050974
64	0x3ee6d7d8	0.4508655
65	0x406f5e11	3.7401164
66	0xbcaa8a77	-0.020817978
67	0x3ea931cd	0.33045807
68	0xbd473810	-0.04863745
69	0x3d0052f6	0.031329118
70	0xbd382e0f	-0.0449658
71	0x3ea97e21	0.3310404
72	0xbcfe126e	-0.031014647
73	0x3f076a69	0.52896744
74	0x3e9ba8e7	0.304023
75	0x40ae331c	5.443739
76	0x3c2a1794	0.010381598
77	0x3ed2ba8c	0.4115795
78	0x3eb4ba5d	0.35298434
79	0x3ce91d2d	0.028456295
80	0x3e9538eb	0.29144987
81	0xbc92c228	-0.017914847
82	0x40618fb3	3.5243957
83	0x3c08ed24	0.00835732
84	0xbf8cef8b	-1.1010603
85	0x3eb2806d	0.34863606
86	0xbcfa2aad	-0.030537928
87	0xbcf655ad	-0.03007015
88	0xc03d8e5e	-2.9618144
89	0x3ed19a39	0.40937975
90	0xbc97fab6	-0.018552165
91	0x3efb8c4e	0.4913048
92	0x3ac127e5	0.0014736621
93	0xbcee4fb8	-0.029090747
94	0xbd54d737	-0.051963057
95	0x3fb53e5f	1.4159659
96	0x3cb8c21c	0.022553496
97	0x3ec58bcd	0.38583222
98	0x3e686126	0.22693309
99	0x3edf70de	0.43640798
100	0xba6c5cf1	-0.0009016535
101	0x3fc50c36	1.5394351
102	0x3bf09945	0.00734249
103	0xbd8f4921	-0.0699637
104	0xc124b91e	-10.295195
105	0x3bff80c4	0.0077973325
106	0x3eccb06a	0.39978343
107	0xbd08135e	-0.033221595
108	0x3bbab96e	0.0056983745
109	0xbd283b3d	-0.04107212
110	0xbb0a2741	-0.0021080526
111	0x3c7a1df7	0.015265933
112	0x3eb3c1e4	0.35108864
113	0x3ed37a0b	0.4130405
114	0x3eab64d3	0.3347536
115	0x3d4a483d	0.049385298
116	0x3daae0c5	0.08343653
117	0x3f0102f4	0.5039513
118	0x3e0c4648	0.13698685
119	0x3eace992	0.3377195
120	0x3c169abd	0.009192166
121	0x3eae3371	0.34023622
122	0x3d611074	0.05494733
123	0x3fead053	1.8344826
124	0x408583bd	4.1723313
125	0xc0d61ad2	-6.690774
126	0x3b22d5fc	0.0024846783
127	0xbbc34bfc	-0.005959986
128	0x3cd8fc87	0.026487602
129	0xbd3868a6	-0.045021676
130	0x3e8ab1f0	0.2708888
131	0xbd418b32	-0.047251888
132	0xbcddbea4	-0.027068444
133	0x3ea6481e	0.32476896
134	0x3ae8c10d	0.0017757729
135	0xbca5a08b	-0.020218154
136	0xbc1a7913	-0.00942828
137	0x4087a5fe	4.2390127
138	0xc086547c	-4.197813
139	0x3d9477a7	0.072493844
140	0x3eb54e39	0.35411242
141	0x3eb4b02e	0.35290664
142	0x3a9dfc2d	0.0012053304
143	0x3eabfd11	0.33591512
144	0xbd03b03e	-0.0321505
145	0x3eff55ea	0.49870235
146	0x3e94ee25	0.2908794
147	0x3eb72b14	0.35775054
148	0xbea268dc	-0.31720626
149	0x3d16818e	0.036744647
150	0xbc14978a	-0.009069333
151	0x3e9c037e	0.30471414
152	0x3ca10a0a	0.019658107
153	0x3a3f0f60	0.0007288363
154	0x3ecbbb8d	0.39791527
155	0x3ee19870	0.44061613
156	0x3c242e3c	0.010020789
157	0x3ce663e6	0.028123807
158	0xbc5f8e63	-0.0136447875
159	0x3ef188b6	0.47174615
160	0xbca570cf	-0.020195393
161	0x3e509b3a	0.20371714
162	0xc1ab46ca	-21.409565
163	0x3ec6acd7	0.3880374
164	0x3ed3758c	0.4130062
165	0x3c877673	0.016535973
166	0x40e18dc1	7.048554
167	0x3cafe752	0.021472607
168	0xbdc5a886	-0.09651284
169	0x40b6dd3b	5.7145057
170	0xbdf97333	-0.12180176
171	0x401bffc4	2.4374857
172	0x3ed06fca	0.40710288
173	0x3f0430bf	0.5163688
174	0x3e98c182	0.29835135
175	0x3b41b605	0.0029557955
176	0x3e87e8d6	0.26544827
177	0x3eaa2630	0.3323226
178	0x3cc7e483	0.024400955
179	0x3e9cdcdb	0.3063725
180	0x3f0edaf6	0.5580286
181	0xbf78c4e5	-0.9717544
182	0x3fc2fddc	1.5233722
183	0x3ed6419a	0.41846925
184	0xbc9e6294	-0.019334115
185	0xbd186a31	-0.037210647
186	0xbcb2dcd8	-0.021833822
187	0x3ccff7eb	0.025386771
188	0xbb1915ef	-0.002335902
189	0x3ebce024	0.36889756
190	0x40b37335	5.6078134
191	0x3d0e8ed6	0.034804188
192	0x3bdc763e	0.0067279628
193	0xbd202008	-0.039093047
194	0x408a3b46	4.3197355
195	0x40a2ddc7	5.0895724
196	0x3ea515d8	0.32243228
197	0xbc890b6e	-0.016729083
198	0xbc878fcc	-0.01654806
199	0x3d88d79a	0.06681748
200	0xba8b6329	-0.001063441
201	0x3eb027f8	0.34405494
202	0xbd28ceef	-0.041212972
203	0xbb13d46f	-0.002255704
204	0x3f72df77	0.9487223
205	0x3ec3215b	0.38111386
206	0x400f273a	2.2367692
207	0xbb89f346	-0.0042099087
208	0x3eb40ecb	0.35167536
209	0xc07bff2f	-3.9374502
210	0x3e7c3a16	0.24631533
211	0xbc1a4e7b	-0.009418125
212	0xbd5377e7	-0.05162802
213	0x3d40698e	0.046975665
214	0x3f7138bb	0.9422719
215	0x418d3edb	17.655691
216	0x3e7d16e9	0.24715771
217	0xc06cab83	-3.6979682
218	0xbcb0e9b7	-0.021595819
219	0x4079df06	3.9042373
220	0x3eb7075d	0.35747805
221	0x403db578	2.964201
222	0xbcef6771	-0.02922413
223	0xc08bfac9	-4.3743634
224	0xbca3e826	-0.020008158
225	0x404f908c	3.2431974
226	0x3e8c0580	0.27347946
227	0x3c83722e	0.016045656
228	0x3ebd790b	0.3700641
229	0xbfa97839	-1.3239814
230	0x3ed661aa	0.41871387
231	0x3e9872d7	0.29775116
232	0x3ea4a60c	0.32157934
233	0xc0a50f31	-5.1581044
234	0xbd3a3f4a	-0.045470513
235	0x3ee474e9	0.44620445
236	0xbd6f778f	-0.05846363
237	0xbc74ca92	-0.014940875
238	0x3f5e4457	0.8682303
239	0x3eb70e29	0.3575299
240	0x40d41064	6.627001
241	0x3ededdca	0.43528587
242	0x3e8a0797	0.26958916
243	0x3e80cf41	0.25158122
244	0x3f8aa0c3	1.083031
245	0x3c73bd08	0.0148766115
246	0xbc9e3cac	-0.01931604
247	0xbcdb8604	-0.026797302
248	0x3eb4564f	0.35222098
249	0x3ccb77f1	0.024837466
250	0x3fc338f8	1.525176
251	0x3eb6e390	0.3572049
252	0x3eb252f7	0.34828922
253	0x3c2bd5a6	0.0104879495
254	0x3c601e2c	0.013679069
255	0x3e950d41	0.29111674

6.bias f4 [4]
0	0x421ef6fb	39.74119
1	0x42118ac5	36.385517
2	0x41a80f28	21.0074
3	0x41ebdfcf	29.484282
