model_best_2_v3.pth (torch, 79392 bytes, 20 tensors)

fc1.weight f4 [64, 6]
0	0x3e201388	0.1563245
1	0xbcfffed7	-0.031249447
2	0x40a7b47e	5.2407827
3	0x40e29b1d	7.0814347
4	0xbe222c7f	-0.15837286
5	0xc0ffac5c	-7.98979
6	0xc013ca4a	-2.3092217
7	0x3e8a6ac3	0.27034578
8	0xc0a1e3a2	-5.059037
9	0x3f4fdeda	0.8119942
10	0x3e2e40db	0.17016928
11	0xc0c82dae	-6.255576
12	0x3f4b9f32	0.7953979
13	0xbedfafb3	-0.43688735
14	0xbe2634b1	-0.16231038
15	0x40b302ac	5.594076
16	0xbe4a37fe	-0.19747922
17	0xc12dbdc3	-10.858829
18	0x3dbcab02	0.09212305
19	0xc01242ee	-2.285335
20	0x40aff8b8	5.499111
21	0x41bdec6f	23.740446
22	0xbd0c3c48	-0.034237176
23	0xbfc28615	-1.5197169
24	0x3f3d71b1	0.74001604
25	0x3f52f779	0.82408863
26	0xbf0eb4b1	-0.55744463
27	0xc01ff0c7	-2.499071
28	0x3e533834	0.20626909
29	0x405bf4ae	3.436809
30	0x3da25e6b	0.07928165
31	0xbc1ac217	-0.009445689
32	0x3e3b5e6c	0.18297738
33	0x40e8b785	7.2724023
34	0xbc832152	-0.0160071
35	0x41f742af	30.90756
36	0xbc1850b8	-0.009296589
37	0x3cf3adb8	0.029745921
38	0x3a9988c9	0.0011713739
39	0xc2718fe7	-60.39053
40	0xbc8965a1	-0.016772093
41	0x3e9fe73f	0.31231114
42	0xbf213eb0	-0.6298628
43	0x3e5c997f	0.21542929
44	0xc0b5fadf	-5.686874
45	0x3f2a674d	0.66563874
46	0xbedccd68	-0.43125463
47	0xc0f4daea	-7.651723
48	0xbf30756e	-0.68929183
49	0xbe6232da	-0.22089711
50	0xbf2dcd00	-0.6789093
51	0x3df2438e	0.11829291
52	0x3bc1bf44	0.005912693
53	0x3f83258d	1.0245835
54	0xba43e7d6	-0.0007473206
55	0xbea867d9	-0.3289173
56	0x3f0721a3	0.527857
57	0x3d7003ae	0.05859726
58	0xbf30e8a1	-0.69104964
59	0xbf8a398d	-1.0798813
60	0x3d497dff	0.049192425
61	0x3e525127	0.2053877
62	0x3eeb4694	0.45952284
63	0x404e3459	3.221945
64	0xbeb89815	-0.3605353
65	0x400d7bf2	2.21069
66	0x3db9ecb1	0.090783484
67	0x3df83b73	0.12120714
68	0x41032ac8	8.197945
69	0x403b0992	2.9224591
70	0xbce88bc5	-0.02838696
71	0xc101824f	-8.094314
72	0xbe816f02	-0.25280005
73	0xbc57f12d	-0.013180059
74	0xc063f716	-3.561956
75	0x40ef27cf	7.4736094
76	0xbe59c36d	-0.21265955
77	0x3e0fa554	0.14027911
78	0x3d12f73d	0.035880316
79	0x3b9f1332	0.004854583
80	0xbf598350	-0.8496599
81	0xbf9fd3c7	-1.2486504
82	0xbb00e04c	-0.0019664941
83	0xc175d0df	-15.363494
84	0xbfcbca03	-1.5921024
85	0xbd394c76	-0.045238934
86	0xc083c94b	-4.118322
87	0x403f1538	2.98567
88	0x3f171471	0.59015566
89	0xc0f3eed4	-7.622904
90	0xbff684f7	-1.9259328
91	0x3e67d430	0.22639537
92	0xc08d79bb	-4.4211097
93	0x40cf048b	6.4693046
94	0xbd81efa0	-0.06344533
95	0xc0f1269e	-7.535964
96	0x3e039568	0.12849963
97	0xc0a021ae	-5.0041113
98	0xc04c272f	-3.1898916
99	0x40d6633f	6.699615
100	0xbfbb1996	-1.4617183
101	0x40a4442c	5.133322
102	0xc07f88fb	-3.9927356
103	0x3f600cc2	0.87519467
104	0xc0980544	-4.750643
105	0xbee25130	-0.44202566
106	0x3e5603a6	0.2089983
107	0x40208c57	2.5085657
108	0xbd42fa46	-0.04760196
109	0xbf4bbe56	-0.79587305
110	0xc12c47dc	-10.767544
111	0xc187b538	-16.963486
112	0xbdde168d	-0.10844145
113	0x3fb4a37a	1.4112389
114	0xbc64dfa0	-0.013969332
115	0x3fa740c9	1.3066646
116	0x40ed1036	7.408229
117	0xc12e2a87	-10.885383
118	0xbd5f0dc5	-0.05445649
119	0xc1225abe	-10.147154
120	0x3cec3f92	0.028838906
121	0xbf0aaee2	-0.541731
122	0xbf152995	-0.58266574
123	0x404343df	3.0510175
124	0xbd81c094	-0.063355595
125	0xc0804369	-4.008229
126	0x3ed01f7f	0.4064903
127	0xbf32a38b	-0.69780797
128	0xbfb163ac	-1.3858542
129	0x42252f6e	41.296318
130	0x3e0f0c34	0.13969499
131	0x3f000e31	0.50021654
132	0x3dde4b51	0.10854209
133	0x3bd0428a	0.0063555883
134	0xbea9dd95	-0.33176866
135	0x4027fa4b	2.6246517
136	0xbd84b834	-0.064804465
137	0x40d9e5f2	6.8093195
138	0xbf3d6538	-0.7398257
139	0xbeb0942e	-0.34488052
140	0x3f816c28	1.0111132
141	0x41c3604e	24.422024
142	0xbdad2015	-0.08453385
143	0x3ed1276e	0.40850395
144	0x3fbeb868	1.4900026
145	0x3e7c15c5	0.2461768
146	0x3f73d6b0	0.9524946
147	0x406014d8	3.5012722
148	0xbce74283	-0.028229957
149	0xc136c731	-11.423631
150	0x3f17452c	0.5908992
151	0x3fa9eb8f	1.3275012
152	0x3fdd40e2	1.7285426
153	0x40fcddbc	7.902067
154	0x3f05ab39	0.5221439
155	0xbff33308	-1.8999949
156	0x3d28afed	0.0411834
157	0xbc174dcb	-0.009234856
158	0x3f04f331	0.5193358
159	0x421bef5c	38.98375
160	0xbc85587b	-0.016277542
161	0x3f40fd9e	0.7538699
162	0xc0159593	-2.3372543
163	0x3ea4632e	0.32106918
164	0x3c6ddfb0	0.014518663
165	0xc0d31bd6	-6.597148
166	0xbe9a3cc3	-0.30124483
167	0x40d8ded0	6.777199
168	0x3d165eea	0.03671161
169	0xc16333a4	-14.200108
170	0xc015061d	-2.3284981
171	0xc1536675	-13.212514
172	0xc0878bc9	-4.2358136
173	0x40a28b4d	5.0795045
174	0xbeb61684	-0.35564053
175	0xbd049038	-0.0323641
176	0xbf1bf787	-0.6092457
177	0x3efa2da3	0.48862943
178	0xbe3b160e	-0.18270132
179	0x3d4f42dc	0.05060087
180	0xbf23ee92	-0.64035904
181	0x3e49eb66	0.19718704
182	0xbd98d1c6	-0.07461886
183	0xbf0f2ab7	-0.5592455
184	0xbde18f47	-0.11013656
185	0xbfa41b63	-1.2820858
186	0xbf2d444e	-0.6768235
187	0x3f25d427	0.64776844
188	0xc0b91417	-5.7837024
189	0x3edb4d38	0.4283235
190	0x3f0eaf30	0.55736065
191	0xc0e84ee0	-7.2596283
192	0x3d32a0fc	0.043610558
193	0x3d69ce8e	0.05708175
194	0xc1675578	-14.458366
195	0x418e5e48	17.796036
196	0xbd256b9f	-0.04038584
197	0x40865467	4.197803
198	0x3eaf8684	0.34282315
199	0x3eba0fd1	0.36340192
200	0xbe5a3045	-0.21307476
201	0x40c6e0a8	6.214924
202	0xbeaa1573	-0.3321949
203	0xc0e9973f	-7.2997127
204	0xbecc4302	-0.39894873
205	0xbefe45f3	-0.49662742
206	0x3e828776	0.25493973
207	0xbeaef710	-0.3417287
208	0xbe756580	-0.239645
209	0xbfa21db3	-1.2665313
210	0x3d83077e	0.063979134
211	0x3c6f2ac3	0.0145975975
212	0xc0bdcc6f	-5.9312053
213	0x420785b5	33.880573
214	0xbd10ed11	-0.035382334
215	0xbf917a89	-1.136552
216	0xbeff0913	-0.4981161
217	0xbd5852f4	-0.052813485
218	0xbfcbcc67	-1.5921754
219	0x401917ab	2.3920696
220	0xbead0ab3	-0.33797225
221	0x3eaa392b	0.3324674
222	0x3d411fa4	0.047149315
223	0xc065d5ac	-3.5911665
224	0x40a4dbc6	5.151828
225	0x41780d80	15.503296
226	0xbed9955a	-0.4249676
227	0xc0b8e57e	-5.778014
228	0x3f1ed02d	0.620364
229	0xbf9bc35c	-1.2168994
230	0x403982e9	2.8986151
231	0x41665160	14.394867
232	0xbf43b45a	-0.7644707
233	0xc0063fee	-2.097652
234	0x3d0ea1b0	0.034822166
235	0xbe232826	-0.15933284
236	0xc1276868	-10.46299
237	0x41d71b26	26.888256
238	0x3c61ab91	0.013773815
239	0xbe89ece1	-0.26938537
240	0xbf8d52cb	-1.1040891
241	0x3e5d0d98	0.21587217
242	0xc05725ee	-3.36169
243	0x3fb50195	1.4141108
244	0x3ea4d5a4	0.32194245
245	0xc1228029	-10.156289
246	0xbed49009	-0.4151614
247	0xbeeac53e	-0.4585361
248	0xbf188e2d	-0.59591943
249	0x3ee5e2ea	0.44899684
250	0xbcae54c2	-0.02128065
251	0xbfe93cd8	-1.8221693
252	0xbf0657dc	-0.5247781
253	0xbf650ac1	-0.89469534
254	0xc0029ff1	-2.041012
255	0x418b4d2f	17.412687

fc1.bias f4 [64]
0	0x3f913495	1.1344172
1	0x3e5792b8	0.21052063
2	0xbf443432	-0.76642144
3	0xbc931f12	-0.017959151
4	0xbfa29e85	-1.2704626
5	0xbea2eed3	-0.31822833
6	0xbfc40000	-1.53125
7	0x3e90f97e	0.28315347
8	0x3e314d39	0.17314614
9	0x3f1dd7c4	0.6165736
10	0xbe017e3a	-0.12645808
11	0xbf87d031	-1.061041
12	0xbf08051b	-0.5313279
13	0x3f108a6d	0.5646122
14	0xbf9193d3	-1.1373237
15	0x3de19bbd	0.11016033
16	0xbe6f7f08	-0.23388302
17	0xc0041312	-2.063664
18	0xbe1578d4	-0.14596874
19	0x3db34ca4	0.087548524
20	0x3eb0576b	0.34441695
21	0xbc88af34	-0.016685106
22	0x3f666184	0.8999255
23	0xbf93c043	-1.1543049
24	0x3fc4ff5d	1.5390431
25	0xbefb70c4	-0.4910947
26	0x3ea15e9c	0.31517494
27	0x3f7c96c3	0.98667544
28	0x3f5a5cd1	0.85297877
29	0x3ed4a9a0	0.41535664
30	0x3d5acf51	0.05342037
31	0xbe3f94f6	-0.18709168
32	0x3e4e4bde	0.20146129
33	0x3f2cc50c	0.6748817
34	0xbeaf049a	-0.34183198
35	0xbf0f7946	-0.56044424
36	0x3e64b48d	0.223345
37	0x3f48d607	0.7845158
38	0xbfc08828	-1.5041552
39	0x3f17921e	0.5920733
40	0xbeea56af	-0.4576926
41	0x3e948117	0.29004738
42	0xbd46239c	-0.048373803
43	0x3ecd2a8a	0.40071517
44	0x3ed1d8ab	0.40985617
45	0x3ef33785	0.47503296
46	0xbee5f0af	-0.4491019
47	0x3da03d0b	0.07824143
48	0x3eb79c70	0.3586154
49	0x3e97b019	0.2962654
50	0x3f6aba5c	0.9169061
51	0xbcbd594c	-0.02311387
52	0xbf9ab65d	-1.2086903
53	0xbdaff717	-0.085920505
54	0x3e781ab6	0.2422894
55	0x3fbc7cb4	1.4725556
56	0xbdf96689	-0.1217776
57	0x3c9558cf	0.018230824
58	0x3f6b773b	0.91978806
59	0xbf0ddb50	-0.5541277
60	0xbf1bfb18	-0.60930014
61	0x3f54a3ad	0.8306225
62	0xbf92e1ed	-1.1475197
63	0xbfb453bf	-1.4088057

bn1.weight f4 [64]
0	0x3e6c0ffe	0.23052976
1	0x3f377b6a	0.7167269
2	0x3e83fe8c	0.2578014
3	0x3f8fd5c6	1.1237113
4	0x3f81309a	1.0092957
5	0x3fb65975	1.424605
6	0x3fc233ec	1.5172095
7	0x3f28d345	0.6594737
8	0x3dc19c25	0.0945361
9	0x3e25cce6	0.16191444
10	0x3e0d4233	0.13794784
11	0x3f17ad5d	0.59248906
12	0x3d7b7ac9	0.061396394
13	0x3f69df93	0.9135677
14	0x3f2eedfb	0.6833188
15	0x3f122d55	0.5710042
16	0x3f9dac9b	1.23183
17	0x3f3d476e	0.7393712
18	0x3eec2892	0.46124703
19	0x3e59db89	0.21275152
20	0x3e1b7ce3	0.15184359
21	0x3f81d02b	1.0141653
22	0x3f8679f5	1.0505968
23	0x3f0c577d	0.54820997
24	0x3ebb8f69	0.3663285
25	0x3ec9108c	0.39270437
26	0x3f946536	1.1593387
27	0x3f36b3a7	0.7136788
28	0x404fd54d	3.2473938
29	0x3d6bf9dd	0.057611335
30	0x3d1ac871	0.037788812
31	0x3f2044cd	0.6260498
32	0x3f6b1267	0.91824955
33	0x3f2df15a	0.679464
34	0x3d41ba71	0.047296945
35	0x3f8b0695	1.0861384
36	0x3deb77ae	0.114974365
37	0x3fb5b102	1.4194643
38	0x3f6f6d09	0.9352575
39	0x3fafa0b6	1.372092
40	0x3f288ec7	0.6584286
41	0x3d8bb587	0.06821733
42	0x3f0716a0	0.527689
43	0x3e91ec4e	0.285006
44	0x3f970bbe	1.1800458
45	0x3fa999ba	1.3250039
46	0x3ea57617	0.32316658
47	0x3f1d6e1f	0.61496156
48	0x3d88886e	0.06666647
49	0x3d63cbff	0.055614468
50	0x3f68ffc2	0.91015255
51	0x3e3675ac	0.17818326
52	0x3f6df1a2	0.9294683
53	0x3f3fe73e	0.7496222
54	0x3ecf6277	0.4050481
55	0x402b2964	2.6744013
56	0x3f95cfc7	1.1704034
57	0x3e013492	0.1261771
58	0x3face7c5	1.350823
59	0x3f2fd816	0.68689096
60	0x3f28caae	0.65934265
61	0x3fed9c51	1.8563329
62	0x3f5e189d	0.86756307
63	0x3fa35c16	1.2762477

bn1.bias f4 [64]
0	0x3def3fbb	0.116820775
1	0xbfcd117b	-1.602096
2	0x3ea672f8	0.3250959
3	0xbeee3006	-0.46521014
4	0xbf680c95	-0.906442
5	0x409658f7	4.69836
6	0x3e9a043d	0.3008136
7	0xbf8d6cb3	-1.1048797
8	0xbec4ff8d	-0.3847622
9	0xbe7954ae	-0.24348709
10	0xbf4bcba4	-0.79607606
11	0x3f768890	0.9630213
12	0xbeba2044	-0.36352742
13	0x3fdee1ca	1.7412655
14	0xbfac39c7	-1.3455132
15	0xbf9827c4	-1.1887136
16	0xbe9d801a	-0.30761796
17	0xbf886420	-1.0655556
18	0xbe3692a1	-0.17829372
19	0x3e64ef53	0.2235692
20	0xbeceb869	-0.4037507
21	0xbfa2261d	-1.2667881
22	0xbf4b74d1	-0.7947512
23	0xbf1ba865	-0.60803825
24	0x3edc1676	0.42985886
25	0x3e5dd64f	0.21663783
26	0x3c7d38d9	0.015455448
27	0xbef0e740	-0.4705143
28	0xbf0f8f97	-0.56078476
29	0xbea30ab0	-0.3184409
30	0xbe17cd1d	-0.14824338
31	0xbf592bb1	-0.8483229
32	0xbdc7fb6d	-0.097647525
33	0x3e67f932	0.22653654
34	0xbe90e1ea	-0.2829736
35	0xbf2081e7	-0.62698215
36	0xbf0bd452	-0.5462085
37	0xbec5db59	-0.3864391
38	0xbf3a9f3e	-0.72899234
39	0xbfa00052	-1.2500098
40	0xbfa6a0ca	-1.3017819
41	0xbebbbec4	-0.3666898
42	0x3d2247ec	0.03961937
43	0x3e3f282c	0.18667668
44	0x3ebd2c7f	0.3694801
45	0xbebf16d7	-0.37322113
46	0xbf9d4797	-1.2287472
47	0xbf84e7d2	-1.0383246
48	0xbecbc98a	-0.398022
49	0xbe348c91	-0.17631747
50	0x3d57ad6a	0.052655615
51	0x3eaf17f0	0.3419795
52	0xbe82ec7f	-0.25571057
53	0xbbea0f78	-0.0071429573
54	0xbf373bca	-0.71575606
55	0xbc313e5f	-0.010818093
56	0xbf16b32e	-0.58867157
57	0xbf157a35	-0.583896
58	0xbf1cdc83	-0.61273974
59	0xbf3207bd	-0.6954306
60	0xbfae11ca	-1.3599179
61	0xbf10f5c2	-0.56624997
62	0xbf2cd9d6	-0.6751989
63	0xbb27b02f	-0.0025587191

bn1.running_mean f4 [64]
0	0x479f06a9	81421.32
1	0xc994094c	-1.2127135e+06
2	0x48c85e18	410352.75
3	0x472734b5	42804.707
4	0x48c1df80	397052.0
5	0x473aaf6e	47791.43
6	0xc5d7dd15	-6907.6353
7	0xc8a6c166	-341515.2
8	0xc8b12264	-362771.12
9	0xc65470d5	-13596.208
10	0x46a3b126	20952.574
11	0x47437755	50039.332
12	0xc8069ded	-137847.7
13	0x46814959	16548.674
14	0xc94a84ee	-829518.9
15	0xc977bb38	-1.0147075e+06
16	0x46b18605	22723.01
17	0xc9ff0892	-2.0892342e+06
18	0xc70a56a4	-35414.64
19	0xc52066ff	-2566.4373
20	0x462f951d	11237.278
21	0x4851f04a	214977.16
22	0x475e8c35	56972.207
23	0xc8bee124	-390921.12
24	0x493f2437	782915.44
25	0x489e68a4	324421.12
26	0x46b4d65c	23147.18
27	0xc9965a32	-1.2316862e+06
28	0xc7d3aa6f	-108372.87
29	0xc839d37b	-190285.92
30	0xc8a4de34	-337649.62
31	0xc8a926d8	-346422.75
32	0x46840082	16896.254
33	0x48292799	173214.39
34	0xc85287b4	-215582.81
35	0x46f78676	31683.23
36	0xc882f75a	-268218.8
37	0x45ba47f4	5960.994
38	0x48969b18	308440.75
39	0x46609b8c	14374.887
40	0xc90cc25a	-576549.6
41	0xc8576b66	-220589.6
42	0xc88fbf43	-294394.1
43	0xc4f5967e	-1964.7029
44	0xc6be1b47	-24333.639
45	0xc72da74e	-44455.305
46	0xc943a9aa	-801434.6
47	0xc9731603	-995680.2
48	0xc892d462	-300707.06
49	0x4783cdd5	67483.664
50	0x47970568	77322.81
51	0xc80882dc	-139787.44
52	0x47a4e2fc	84421.97
53	0x46cf4c10	26534.031
54	0x46d42588	27154.766
55	0xc76c407f	-60480.496
56	0x49154bf5	611519.3
57	0xc81397c0	-151135.0
58	0xc7f60729	-125966.32
59	0xc87965ec	-255383.69
60	0xc83f8302	-196108.03
61	0xc7d8e8b5	-111057.414
62	0x47b2168c	91181.09
63	0x47a526d5	84557.664

bn1.running_var f4 [64]
0	0x4e9116a1	1.2170897e+09
1	0x52455ba3	2.1191149e+11
2	0x50c285f3	2.6108467e+10
3	0x4eaa28a7	1.4273955e+09
4	0x50961104	2.014158e+10
5	0x4dd73ce0	4.5138637e+08
6	0x4af78e08	8.111876e+06
7	0x5055f85c	1.4359294e+10
8	0x50884bce	1.8293354e+10
9	0x4ece97d0	1.7330278e+09
10	0x4df5585e	5.1452614e+08
11	0x4d99bfa0	3.2243405e+08
12	0x4f04fc9a	2.231147e+09
13	0x4c6079b1	5.8844868e+07
14	0x51c66c76	1.065279e+11
15	0x52069b7c	1.4453355e+11
16	0x509d4a6a	2.1111198e+10
17	0x5312a5bc	6.298458e+11
18	0x4d4167ba	2.0280003e+08
19	0x4d20d8a8	1.6865958e+08
20	0x4d117c6f	1.525532e+08
21	0x4fc3ae94	6.5659965e+09
22	0x4e02b439	5.482123e+08
23	0x5099c601	2.0639123e+10
24	0x51a02f6c	8.59988e+10
25	0x50362ce4	1.2225581e+10
26	0x4c9b29eb	8.135049e+07
27	0x5242b148	2.0904949e+11
28	0x520f4a37	1.5385636e+11
29	0x4f88132e	4.5659167e+09
30	0x5069bdfa	1.5686167e+10
31	0x50a8406a	2.258235e+10
32	0x4d06edb3	1.414828e+08
33	0x4f9ced85	5.2656236e+09
34	0x4fa81f04	5.64121e+09
35	0x4d3b0aac	1.9612742e+08
36	0x50035104	8.812499e+09
37	0x4f870528	4.530524e+09
38	0x50a5eeca	2.227112e+10
39	0x4c9d1f06	8.237675e+07
40	0x513dec0b	5.098181e+10
41	0x4fc04992	6.452094e+09
42	0x5016bc63	1.0115714e+10
43	0x4e56359a	8.9845926e+08
44	0x4d1bc8ba	1.6335146e+08
45	0x514ca7ca	5.4936773e+10
46	0x51a47194	8.828502e+10
47	0x5202cb64	1.4043952e+11
48	0x50330d1d	1.2015924e+10
49	0x4f22c1d9	2.730613e+09
50	0x4e4a4465	8.4837e+08
51	0x4fdc5fb4	7.394519e+09
52	0x4e89a0c8	1.1545078e+09
53	0x4cc06a09	1.00880456e+08
54	0x4d7b4901	2.634916e+08
55	0x5140c778	5.1748766e+10
56	0x51543c62	5.6971633e+10
57	0x4f369179	3.062987e+09
58	0x50b509df	2.4298584e+10
59	0x50315d6b	1.1902758e+10
60	0x4f9bb0e4	5.2241224e+09
61	0x51b3c43c	9.651143e+10
62	0x5087a13e	1.820393e+10
63	0x4e7119ba	1.0112488e+09

fc2.weight f4 [128, 64]
0	0xbede8940	-0.43464088
1	0xbf93e860	-1.155529
2	0xbeda6a7f	-0.42659375
3	0xbee5c7e3	-0.44879064
4	0xbf0af154	-0.5427449
5	0x3f45ff0b	0.7734229
6	0x3eba9846	0.364443
7	0xbf9c4078	-1.2207174
8	0xbe8a8cfd	-0.2706069
9	0xbea0aad1	-0.31380323
10	0x3e311e4b	0.17296712
11	0x3f53b84f	0.8270311
12	0xbe1c0fb8	-0.15240371
13	0x3e04aa52	0.12955597
14	0xbefb646e	-0.4910006
15	0xbeb5e671	-0.35527375
16	0x3eb8d99c	0.36103523
17	0xbf895ce5	-1.0731474
18	0xbf5464e6	-0.8296646
19	0xbc5c700c	-0.013454448
20	0xbc30e8aa	-0.010797659
21	0x3e8b3361	0.27187636
22	0xbf961f1e	-1.1728246
23	0xbf5939fb	-0.84854096
24	0xbede277e	-0.43389505
25	0xbfa447d4	-1.283442
26	0xbf761b61	-0.96135527
27	0xbec4aaf0	-0.38411665
28	0x3fa8f951	1.3201085
29	0xbd8214b9	-0.06351609
30	0xbe3f4515	-0.18678696
31	0xbf449fcf	-0.7680635
32	0xbf780f8b	-0.96898717
33	0xbf7fc6b7	-0.9991259
34	0xbe8f289b	-0.27960667
35	0xbe805074	-0.2506138
36	0xbc303e3c	-0.010757025
37	0xbe3de693	-0.18544988
38	0xbf10e6c3	-0.56602114
39	0x3fb3f6ae	1.4059656
40	0xbe97185e	-0.29510778
41	0xbdaf8d40	-0.08571863
42	0xbf933296	-1.1499813
43	0x3f1e043d	0.6172522
44	0x3cfc3a9a	0.030789662
45	0x3e651e8c	0.22374934
46	0xbdabc335	-0.08386842
47	0xbfae096a	-1.3596623
48	0xbe8b6037	-0.27221844
49	0xbe04936c	-0.12946862
50	0x3f1c0f10	0.60960484
51	0x3efd7650	0.49504328
52	0xbf2f8e96	-0.68576944
53	0xbf0c209b	-0.5473725
54	0xbee15131	-0.44007257
55	0x3f8c7a2a	1.0974782
56	0xbf44c96e	-0.7686986
57	0x3c1623a3	0.00916377
58	0xbebdee94	-0.37096083
59	0xbd3be4b3	-0.0458724
60	0xbdf207dc	-0.11817905
61	0x3f27f06d	0.65601236
62	0x3ecc370c	0.39885747
63	0xbe8e3bb5	-0.27779928
64	0xbe8728b5	-0.26398245
65	0xc01f7c10	-2.4919472
66	0xbc6ed57c	-0.014577266
67	0x3e6c4c5c	0.23076004
68	0xbff43a35	-1.9080263
69	0x3e839c80	0.25705338
70	0xbf3dc675	-0.74130946
71	0xbf2b431b	-0.6689927
72	0xbd8f8687	-0.07008081
73	0x3e475477	0.19465815
74	0x3f0ba41a	0.54547274
75	0x3dfcb83c	0.123398274
76	0xbe528156	-0.2055715
77	0xbfab5f52	-1.3388464
78	0xc00a9f7a	-2.1659837
79	0xbf24ba75	-0.6434701
80	0x3eaf12ee	0.3419413
81	0xbf3d6fad	-0.7399853
82	0xbfb8c480	-1.4434967
83	0xc0284410	-2.6291542
84	0xbe6c5fdc	-0.23083442
85	0xbf41236a	-0.7544466
86	0xbf1cdf07	-0.6127781
87	0xbf6e45c5	-0.9307521
88	0xbdb8bdeb	-0.09020599
89	0xbf21c488	-0.6319051
90	0xbe5f28ff	-0.21792983
91	0xbfee97c7	-1.8640069
92	0x3f2b20ee	0.6684712
93	0xbe01c200	-0.12671661
94	0xbdb99ce1	-0.090631254
95	0xbf383f2d	-0.719714
96	0x3f04e751	0.5191546
97	0xbe9d027c	-0.30665958
98	0xbe117f90	-0.14208817
99	0xbf6ae684	-0.9175799
100	0x3e02a282	0.12757304
101	0xbeaf1e86	-0.34202975
102	0xbf0f0e61	-0.55881315
103	0xbffe3b30	-1.9861813
104	0xbfeace43	-1.8344196
105	0x3dd59f17	0.104307346
106	0x3ec5eff5	0.38659635
107	0x3ec9b9aa	0.39399463
108	0xbed52dbc	-0.41636455
109	0xbf531dad	-0.82467157
110	0xbef95ac2	-0.48702055
111	0xbf05423e	-0.520542
112	0xbe4da965	-0.2008415
113	0x3e05f380	0.13081169
114	0x3ecb3ad9	0.39693335
115	0x3fa0d121	1.2563821
116	0xbec0d181	-0.3765984
117	0xbe87af69	-0.26501015
118	0x3f31c855	0.6944631
119	0x3e227e30	0.15868449
120	0xbf1d9e25	-0.61569434
121	0x3e994f5c	0.2994336
122	0xbe3a3d7f	-0.18187521
123	0xbf0f2aa9	-0.5592447
124	0xbe92b899	-0.28656462
125	0xbe46f257	-0.19428383
126	0xbe64c009	-0.2233888
127	0xbf69ab78	-0.91277266
128	0x3e34a328	0.17640364
129	0x3e283170	0.16425109
130	0x3ee066ad	0.43828335
131	0x3e73dafd	0.23814006
132	0x3da807e2	0.082046285
133	0x3eac3bcb	0.33639368
134	0x3d0ffb3a	0.035151698
135	0x3e468a47	0.19388686
136	0xbcd91390	-0.026498586
137	0x3e220788	0.15823185
138	0x3d819617	0.063274555
139	0x3dffc14f	0.124880426
140	0x3e46b8fd	0.19406505
141	0x3d6e1a9c	0.058130845
142	0x3d6be119	0.057587717
143	0x3d958174	0.07300082
144	0xbe2cb08c	-0.16864222
145	0x3d739182	0.05946494
146	0x3d37b123	0.044846665
147	0x3daaf0cc	0.083467096
148	0x3e574e9f	0.21026085
149	0x3ddaf36d	0.10690961
150	0x3ea1c1f8	0.315933
151	0x3e64ed4c	0.22356147
152	0x3e7637e5	0.2404476
153	0x3e806f2a	0.2508481
154	0x3ec52f02	0.38512427
155	0x3d9d7f59	0.07690305
156	0xbd773e70	-0.06036228
157	0x3d5cfbee	0.053951196
158	0x3d9d9954	0.07695261
159	0x3e006747	0.12539397
160	0x3d814119	0.063112445
161	0x3ecb48a7	0.39703867
162	0x3e324fb7	0.17413221
163	0x3e70d634	0.23519212
164	0x3e251167	0.1611992
165	0x3d829a20	0.06377053
166	0x3e600785	0.21877868
167	0x3e25f96c	0.16208428
168	0x3e54c4f0	0.2077825
169	0x3c0942c7	0.008377737
170	0xbce02d23	-0.027365273
171	0xbd7215e6	-0.059102915
172	0x3e500423	0.20314078
173	0x3e84a8cb	0.2591003
174	0x3e11d39a	0.14240876
175	0x3e857b81	0.26070789
176	0x3de5d397	0.11221998
177	0x3e959abf	0.29219624
178	0x3e6f11fe	0.23346707
179	0xbe009439	-0.12556542
180	0x3ecab2a4	0.39589417
181	0x3e95225b	0.29127774
182	0x3e111778	0.14169109
183	0xbdeb69eb	-0.114948116
184	0x3ec44e08	0.38340783
185	0x3d53a024	0.051666394
186	0x3d7bf3d2	0.061511822
187	0x3e31deaf	0.17370103
188	0x3d8f399b	0.06993409
189	0xbe613a7a	-0.21994963
190	0x3eba3077	0.363651
191	0x3e685a04	0.22690588
192	0xbd8adaa0	-0.06779981
193	0xbf4d9cef	-0.80317587
194	0xbe87103d	-0.26379576
195	0xbdc0de60	-0.09417415
196	0xbe2a870d	-0.1665308
197	0xbc195383	-0.00935829
198	0x3c48990c	0.0122435205
199	0xbeee770a	-0.46575195
200	0xbe82c30a	-0.25539428
201	0x3dec49ae	0.11537491
202	0xbed65b30	-0.41866446
203	0xbcaa54f3	-0.02079246
204	0xbf114792	-0.5674983
205	0xbd077125	-0.033066887
206	0xbf66810c	-0.9004066
207	0xbf8657d7	-1.0495557
208	0x3e73fc02	0.23826602
209	0xbf6fb930	-0.9364195
210	0xbd1a7c3d	-0.03771614
211	0xbe52e129	-0.20593704
212	0xbe225bd6	-0.15855345
213	0xbe3c94ed	-0.18416186
214	0xbea43fed	-0.32080022
215	0xbcf154b3	-0.029459333
216	0xbeb02a8d	-0.34407464
217	0xbdb0a7d7	-0.08625763
218	0xbdc9c850	-0.0985266
219	0xbe826b89	-0.25472668
220	0x3e100442	0.14064124
221	0xbe99905b	-0.29992947
222	0xbe20a85d	-0.15689225
223	0xbee06ad6	-0.4383151
224	0xbea40912	-0.3203817
225	0xbe2bc890	-0.16775727
226	0xbecc482c	-0.39898813
227	0xbe364fb3	-0.1780384
228	0xbeee9a62	-0.4660216
229	0xbb93818e	-0.004501528
230	0xbded5d55	-0.11590067
231	0xbd4156a7	-0.04720178
232	0xbef27234	-0.47352755
233	0xbee6f167	-0.4510605
234	0x3d3f3aaf	0.046686824
235	0xbe44ae0b	-0.19207017
236	0xbe056c5c	-0.13029617
237	0xbd1c5a94	-0.03817232
238	0xbde820e5	-0.11334399
239	0xbf0d68d4	-0.5523808
240	0xbe85522a	-0.2603925
241	0x3c349cd5	0.01102372
242	0xbd85bbee	-0.06529985
243	0x3e992da6	0.2991764
244	0xbd5c7d42	-0.053830393
245	0xbe91ab6e	-0.28451103
246	0xbf321439	-0.6956211
247	0x3e06406a	0.1311051
248	0xbddd7214	-0.10812774
249	0xbedc2d50	-0.4300332
250	0xbc402c0a	-0.01172925
251	0xbf8507f7	-1.0393056
252	0xbf2bfa1f	-0.6717853
253	0x3e4c5573	0.19954471
254	0xbdd12a6c	-0.102131695
255	0xbf3cfede	-0.73826396

fc2.bias f4 [128]
0	0xbf23fe8a	-0.6406027
1	0xbf0f80c7	-0.56055874
2	0x3e500ba6	0.20316944
3	0x3e5b5600	0.21419525
4	0xbf3ca84d	-0.73694307
5	0xbcb579ba	-0.02215277
6	0x3e65825d	0.22413011
7	0xbd12cf46	-0.035842203
8	0x3eba010c	0.36328924
9	0xbf48e29e	-0.7847079
10	0xbfc44031	-1.533209
11	0x3c862a70	0.016377658
12	0xbf590400	-0.8477173
13	0x3f7bca42	0.98355496
14	0x3f6ef21e	0.9333819
15	0xbeb54376	-0.3540303
16	0x3fa0e48f	1.256975
17	0xbf5d9007	-0.86547893
18	0x3e9bf189	0.30457714
19	0xbe6dcb27	-0.23222028
20	0xbfb21952	-1.3913977
21	0xbea3e3a2	-0.32009608
22	0xbe5503b7	-0.20802198
23	0x3dc86c90	0.09786332
24	0x3dae69c1	0.08516265
25	0xbde9b4b7	-0.11411422
26	0x3f3ea0ea	0.74464285
27	0x3e026e69	0.1273743
28	0x3eaa63ef	0.33279368
29	0x3fbee2cd	1.4912964
30	0xbe5f49ce	-0.21805498
31	0xbfcfce70	-1.6234875
32	0x3f08e184	0.5346911
33	0x3c442526	0.0119717475
34	0x3f45860c	0.77157664
35	0x3e0a587b	0.13510315
36	0xbddeac38	-0.10872692
37	0x3fc5829d	1.5430485
38	0x3e7c0cb7	0.24614225
39	0xbdfec1e7	-0.12439328
40	0x3f07646c	0.52887607
41	0xbe4ace5f	-0.19805287
42	0x3d86abf5	0.06575767
43	0x3e4d8a58	0.20072305
44	0xbf206d6e	-0.62666976
45	0xbf00b2b9	-0.5027271
46	0x3e4218a1	0.18954708
47	0x3e117127	0.1420332
48	0xbf01e2d9	-0.5073677
49	0xbde70677	-0.1128053
50	0xbe6524c4	-0.22377306
51	0xbc704c75	-0.014666666
52	0x3e5b00f8	0.21387088
53	0x3b2bc803	0.0026211746
54	0x3f5df020	0.86694527
55	0xbe82e5d6	-0.25565976
56	0xbdff5a15	-0.12468354
57	0x3eba222f	0.36354205
58	0xbe3c2d13	-0.1837657
59	0x3efb2cc4	0.4905759
60	0x3e39d8bb	0.18149082
61	0x3d967399	0.07346267
62	0xbf0f2978	-0.5592265
63	0x3ef81c8b	0.48459277
64	0x3f2755c8	0.65365267
65	0x3f1b1ed0	0.6059389
66	0xbf8f2163	-1.1182064
67	0xbde241f9	-0.110477395
68	0x3fe4a0cd	1.7861573
69	0x3d0dd61d	0.034628022
70	0xbf7c5091	-0.98560435
71	0xbec395c2	-0.38200194
72	0xbd84cd1d	-0.06484435
73	0xbeb15433	-0.3463455
74	0xbe9b3c30	-0.30319357
75	0xbd8edddf	-0.06975912
76	0xbeef0e70	-0.46690702
77	0xbdd0bb21	-0.10191942
78	0x3cb95cd7	0.022627277
79	0xbf673611	-0.90316874
80	0xbe2f0b07	-0.1709405
81	0xbe4f0d92	-0.2022002
82	0x3fa44884	1.283463
83	0x3e280558	0.16408288
84	0xbf930821	-1.1486856
85	0xbe5693d1	-0.20954825
86	0xbf51d066	-0.81958616
87	0x3eb46f36	0.35241097
88	0xbdb9c2d5	-0.090703644
89	0xbd555d58	-0.052090973
90	0xbe376e6c	-0.17913216
91	0x3f332986	0.69985235
92	0xbe137446	-0.14399824
93	0xbe8ca2b3	-0.2746788
94	0xbef5a31d	-0.47976008
95	0x3ecf09e8	0.40437245
96	0x3f355e61	0.70847136
97	0xbd385790	-0.04500538
98	0xbea6a0ba	-0.325445
99	0x3f4c3948	0.79774904
100	0x3f3a609d	0.7280367
101	0x3dce1dec	0.10064301
102	0x3e9f3da3	0.31101713
103	0x3d02cf10	0.03193575
104	0xbd584301	-0.052798275
105	0xba2b2402	-0.0006528498
106	0x3f1d2310	0.61381626
107	0x3fb353b8	1.4009924
108	0xbdfb46fc	-0.122693986
109	0x3e46a9d9	0.19400729
110	0x3e821c22	0.2541209
111	0x3f6714f4	0.90266347
112	0xbf72ecb5	-0.94892436
113	0x3e712f7c	0.2355327
114	0xbf2a4d71	-0.66524416
115	0xbe99d8be	-0.30048174
116	0x3fac54a2	1.3463328
117	0xbe88e3cf	-0.26736304
118	0xbf07f7e9	-0.53112656
119	0x3e94aaa0	0.29036427
120	0xbfd3207a	-1.6494286
121	0xbe4576e9	-0.19283642
122	0xbf9cb9af	-1.2244166
123	0xbf38b0c1	-0.72144705
124	0xbf1fb955	-0.6239217
125	0x3f012b8f	0.5045709
126	0x3f073af7	0.5282435
127	0x3e94544f	0.28970572

bn2.weight f4 [128]
0	0x3f36fed0	0.71482563
1	0x3f9d45de	1.2286947
2	0x3d5c14ff	0.05373096
3	0x3e59309a	0.21209946
4	0x3fbb4bfb	1.4632562
5	0x3f56ef89	0.8395925
6	0x3e82dae3	0.25557622
7	0x3f7e1528	0.9925103
8	0x3f5ca610	0.8619089
9	0x3f3404a1	0.70319563
10	0x3f7ffffd	0.9999998
11	0x3eb9ea4e	0.36311573
12	0x3f021641	0.50815207
13	0x3f33a74b	0.70177144
14	0x3f89b8d1	1.0759526
15	0x3f6ece30	0.9328337
16	0x3facabfc	1.3489985
17	0x3f6e5bfc	0.93109107
18	0x3eb25ed1	0.34837964
19	0x3f7d3dc4	0.9892237
20	0x3efcccdd	0.49375048
21	0x3f65defa	0.8979336
22	0x3cc165d9	0.023608135
23	0x3fad50bd	1.3540264
24	0x3e269fea	0.1627194
25	0x3f7a6fc8	0.97826815
26	0x3f6835c1	0.9070702
27	0x3f08bc0f	0.53411955
28	0x3e7ff9e6	0.24997672
29	0x3f608183	0.8769762
30	0x3ee5541f	0.44790742
31	0x3f2983bb	0.6621663
32	0x3f56d7a7	0.8392281
33	0x3ebafabc	0.3651942
34	0x3f33dd54	0.70259595
35	0x3d4ec9ae	0.050485305
36	0x3e9603b5	0.29299703
37	0x3f5d312b	0.8640315
38	0x3e9898d3	0.29804096
39	0x3f20d47f	0.62824243
40	0x3f5de28a	0.86673796
41	0x3f045c2d	0.5170315
42	0x3e902491	0.28152898
43	0x3f76cac1	0.9640313
44	0x3f82a662	1.0207026
45	0x3f3dcc75	0.741401
46	0x3c9bae64	0.019004054
47	0x3d74363c	0.059622034
48	0x3fa836a9	1.3141681
49	0x3e2dd45a	0.16975537
50	0x3f94c70d	1.1623245
51	0x3ea44b00	0.3208847
52	0x3f836d13	1.0267662
53	0x3f806765	1.0031554
54	0x3f8591a8	1.0435076
55	0x3f52c5f0	0.8233328
56	0x3f7e6245	0.993687
57	0x3ea0ccde	0.314063
58	0x3f75dfb2	0.96044457
59	0x3f6d9b6d	0.92815286
60	0x3f0ddfab	0.55419415
61	0x3f65f718	0.8983016
62	0x3e596c88	0.21232808
63	0x3f289a55	0.6586049
64	0x3f3817af	0.7191114
65	0x3f66810e	0.9004067
66	0x3f920f41	1.1410905
67	0x3f534905	0.82533294
68	0x3f563428	0.83673334
69	0x3f90009a	1.1250184
70	0x3f3cf919	0.7381759
71	0x3f4c6954	0.7984822
72	0x3e8c6b3d	0.27425566
73	0x3f48675a	0.782827
74	0x3f985fc9	1.1904231
75	0x3d841ca4	0.06450775
76	0x3dda1b1f	0.10649704
77	0x3f21fbc6	0.632748
78	0x3f8e430f	1.1114215
79	0x3f2d0132	0.6757995
80	0x3e8e6b4f	0.27816245
81	0x3e8a08a9	0.26959732
82	0x3f21b610	0.6316843
83	0x3f5e07ba	0.8673054
84	0x3f80ee9b	1.0072817
85	0x3e76800d	0.24072285
86	0x3efe81b5	0.49708334
87	0x3f3340f2	0.70020974
88	0x3ea40af4	0.32039607
89	0x3e85a32b	0.2610105
90	0x3efd8774	0.49517405
91	0x3f9267de	1.1437948
92	0x3f8c423b	1.0957712
93	0x3e7a294f	0.2442982
94	0x3f33a7d5	0.70177966
95	0x3f1b975f	0.6077785
96	0x3f986186	1.1904762
97	0x3e4acb7d	0.19804187
98	0x3f7158a2	0.9427587
99	0x3f205e7e	0.62644184
100	0x3f2e1fe3	0.68017405
101	0x3e72371f	0.2365384
102	0x3f80f870	1.0075817
103	0x3e8eda61	0.27900985
104	0x3eae0539	0.3398836
105	0x3ef5783f	0.47943303
106	0x3f37af5a	0.7175194
107	0x3f606c5b	0.8766534
108	0x3e8c7bd8	0.27438235
109	0x3f7475bd	0.95492154
110	0x3f287191	0.6579829
111	0x3f80f881	1.0075837
112	0x3f831f4f	1.024393
113	0x3f82cf49	1.0219508
114	0x3f8695e6	1.0514495
115	0x3e76f8f2	0.24118403
116	0x3f58c2df	0.8467235
117	0x3ed1cf1f	0.40978333
118	0x3ee87fbf	0.45409963
119	0x3f3d2bdb	0.73895043
120	0x3f9af9b9	1.2107459
121	0x3deb4e28	0.114895165
122	0x3f5e91f4	0.86941457
123	0x3f3df642	0.74203885
124	0x3feb2848	1.8371668
125	0x3d88585f	0.066574804
126	0x3f53cece	0.82737434
127	0x3f88acb5	1.0677706

bn2.bias f4 [128]
0	0xbfa8b1ea	-1.3179295
1	0xbf09e4c8	-0.5386472
2	0xbf1b2573	-0.6060402
3	0xbf0dd80d	-0.5540779
4	0xbf5517a3	-0.8323919
5	0xbf3c8f6c	-0.73656344
6	0xbf1c169f	-0.6097202
7	0xbf17b44a	-0.59259474
8	0xbe89b20b	-0.26893649
9	0xbf4b5641	-0.7942849
10	0xbf99e760	-1.2023735
11	0xbf37e07b	-0.71826905
12	0xbe3386ec	-0.17531937
13	0xbf4c3053	-0.79761237
14	0xc002299e	-2.03379
15	0xbf63f10b	-0.8903968
16	0x3f132c5b	0.57489556
17	0xbf6f75f3	-0.9353935
18	0xbf3b0bf5	-0.7306512
19	0x3fe94397	1.8223752
20	0xbf6dc53c	-0.9287908
21	0xbee752c3	-0.4518033
22	0xbe7245f4	-0.23659497
23	0xbf33b946	-0.7020458
24	0xbf2dc299	-0.6787506
25	0xbf433e48	-0.7626691
26	0xbfbd469d	-1.4787174
27	0xbf8527aa	-1.040273
28	0xbeccf6b9	-0.40031984
29	0xbf4344a0	-0.7627659
30	0xbfb562cb	-1.4170774
31	0xbf14bc37	-0.58099693
32	0xbe86791f	-0.26264283
33	0xbf194a3d	-0.59878904
34	0xbfab2b3e	-1.3372571
35	0xbefd19c6	-0.49433726
36	0xbf1d5a75	-0.6146615
37	0xbf7ad7a5	-0.979853
38	0xbf172bc6	-0.5905117
39	0xbf8c1ad2	-1.0945685
40	0xbf56aaa5	-0.8385413
41	0xbf76f744	-0.9647105
42	0xbf50aeb7	-0.81516594
43	0xbf76ed07	-0.96455425
44	0x3d9f7175	0.07785312
45	0xbf97064a	-1.1798794
46	0xbe200e1c	-0.15630382
47	0xbe851257	-0.25990555
48	0xbf1c07eb	-0.6094958
49	0xbf7c9a16	-0.98672616
50	0xbe80f784	-0.2518884
51	0xbf061a03	-0.5238344
52	0xbf6dd75c	-0.9290674
53	0xbf6f3a7c	-0.93448615
54	0xbf36d8bc	-0.7142446
55	0x3d335f1f	0.043791886
56	0xbf475f31	-0.77879626
57	0xbf0fecef	-0.56220907
58	0xbf620d23	-0.88301295
59	0xbf3f0682	-0.74619305
60	0xbf745c04	-0.95452905
61	0xbf49b404	-0.7879031
62	0xbeb49cb6	-0.3527581
63	0x3ec7018c	0.38868368
64	0xbf0ac888	-0.54212236
65	0xbe1a8fb3	-0.1509388
66	0x3efabfb1	0.48974374
67	0xbf3d1595	-0.73861057
68	0xbfc4837b	-1.5352625
69	0xbf28d939	-0.65956455
70	0x3eeee44b	0.4665855
71	0xbf8ceb01	-1.1009218
72	0xbf129e22	-0.5727254
73	0xbf4260a0	-0.7592869
74	0xbf1355a6	-0.57552564
75	0xbe7bf8d3	-0.24606638
76	0xbe0a21ff	-0.13489531
77	0xbf1d254a	-0.61385024
78	0xbf3bd07a	-0.73364985
79	0xbf7a7446	-0.9783367
80	0xbf19e8ec	-0.60121036
81	0xbf2255ff	-0.6341247
82	0xbf956cbb	-1.1673807
83	0xbecbc260	-0.39796734
84	0x3ee46da7	0.44614908
85	0xbf18a985	-0.59633666
86	0x3f84907a	1.0356591
87	0xbf7fd85d	-0.9993952
88	0xbf2c2a00	-0.67251587
89	0xbf57f488	-0.843575
90	0xbf92c2bc	-1.1465678
91	0xbce6b65d	-0.02816313
92	0xbf255aca	-0.6459166
93	0xbf9615ee	-1.1725442
94	0xbfbe812f	-1.4883174
95	0xbf8c3d49	-1.0956203
96	0xbf68c77a	-0.9092938
97	0xbf0f0040	-0.55859756
98	0xbf2d431d	-0.6768053
99	0xbfaa13a0	-1.3287239
100	0x3fa3fa32	1.2810729
101	0xbee862c1	-0.45387843
102	0xbf98086a	-1.1877568
103	0xbf55a514	-0.83455014
104	0xbf097075	-0.5368722
105	0xbf9f7217	-1.2456692
106	0xbf3bb984	-0.7332995
107	0xbf7ae010	-0.9799814
108	0xbf22913c	-0.6350286
109	0xbf56dc5f	-0.8393001
110	0xbf9033c2	-1.1265795
111	0x3f5831df	0.844511
112	0x3ebd47c5	0.36968818
113	0xbe084288	-0.1330663
114	0xbdcb28fa	-0.09919925
115	0xbf5a1919	-0.85194546
116	0xbf0bd9ab	-0.5462901
117	0xbf2a8ac1	-0.6661797
118	0x3f05283a	0.52014506
119	0xbf9ef18b	-1.2417463
120	0xbfaa7ed5	-1.3319956
121	0xbeef1c9c	-0.46701515
122	0xc00dfac3	-2.2184303
123	0x3ee568a0	0.44806385
124	0xbf6936d7	-0.91099304
125	0xbecc7461	-0.3993254
126	0xbf356109	-0.7085119
127	0xbf3d1bee	-0.7387074

bn2.running_mean f4 [128]
0	0x4031b118	2.776434
1	0xc08d88d9	-4.422955
2	0x405e53d1	3.4738657
3	0xbf928973	-1.1448196
4	0xbe7c471f	-0.24636506
5	0xc0e44050	-7.1328506
6	0xbfd4fba5	-1.6639296
7	0x4083ced5	4.118998
8	0xc05469e7	-3.3189638
9	0x3e8258fb	0.25458512
10	0xc096b485	-4.709536
11	0xbf3f9640	-0.7483864
12	0xbf94c279	-1.1621848
13	0xc05fe413	-3.4982955
14	0xc09356d9	-4.6043515
15	0xc0b18ad8	-5.5481987
16	0x4006577a	2.0990891
17	0xc01735c5	-2.3626568
18	0xc07ea050	-3.9785347
19	0x3fd99890	1.6999683
20	0xc09f6cd3	-4.982034
21	0xc0bb2dd3	-5.849344
22	0x404dc82e	3.215343
23	0x4041de7b	3.0292041
24	0xbf7490d8	-0.95533514
25	0x3fbcccf0	1.4750042
26	0xc0cad7ff	-6.3388667
27	0x4011ad40	2.2761993
28	0xc0cb4663	-6.352342
29	0xbf795afa	-0.97404444
30	0xc021aea0	-2.5262833
31	0xc05b9298	-3.4308224
32	0xc0dc06df	-6.8758388
33	0xbff705bf	-1.9298629
34	0xc090c033	-4.523462
35	0x4043383c	3.0503073
36	0xbfcc191d	-1.5945164
37	0xbfe13bc0	-1.7596359
38	0xc0217b65	-2.5231564
39	0xc08a3bde	-4.319808
40	0x4016b685	2.35489
41	0x3f13e731	0.57774645
42	0x3fc281e6	1.5195892
43	0xc033e37b	-2.8107593
44	0xc0745b5b	-3.818076
45	0xc030ac9b	-2.760535
46	0x3f57f225	0.8435386
47	0x3e818e4c	0.25303876
48	0xbf191a4c	-0.5980575
49	0x3fa05c70	1.252821
50	0x40782062	3.8769765
51	0xc01cf5cb	-2.452502
52	0xc0958867	-4.6729007
53	0xc01dbc9e	-2.4646373
54	0x4010fad1	2.2653086
55	0xc107445e	-8.454191
56	0x3f81b089	1.0131999
57	0xc02b9226	-2.6807952
58	0xc071daaa	-3.7789712
59	0x4032d8a9	2.794474
60	0x4019ea78	2.4049358
61	0xbfd74e65	-1.6820799
62	0xc0d35751	-6.6044087
63	0xc0ff9ca7	-7.9878726
64	0xc02cf2a3	-2.7023094
65	0x3f8bdb23	1.092625
66	0x3f964cd7	1.17422
67	0xbf0c46c2	-0.5479547
68	0x3f1f24d1	0.6216555
69	0x3f0a0acf	0.5392274
70	0xc0e1bee6	-7.054553
71	0xbf1e5228	-0.6184411
72	0xbf4f05b4	-0.8086808
73	0xc0736013	-3.802739
74	0xc08b4b9a	-4.3529787
75	0xc0f77342	-7.7328196
76	0xc0a185a8	-5.0475655
77	0x40c7ae8f	6.2400584
78	0x40205230	2.5050163
79	0xc0d344b9	-6.602139
80	0xc0a94d9f	-5.290725
81	0xc01340ee	-2.300838
82	0x3f659fac	0.89696765
83	0xc0e2fa95	-7.0930886
84	0xc1652504	-14.321537
85	0xbf935b32	-1.1512206
86	0x40be1a99	5.940747
87	0xc00843d2	-2.1291394
88	0xbfa0216a	-1.2510197
89	0xbf89da21	-1.0769693
90	0xc0a3f11e	-5.1231833
91	0xbf471522	-0.7776662
92	0x4040288c	3.0024748
93	0x3ecacdd6	0.39610165
94	0xbe7f558a	-0.24934974
95	0xc0fd901e	-7.9238424
96	0xbfe1f68a	-1.7653363
97	0xbeb6e172	-0.35718876
98	0xc0fee74c	-7.9657345
99	0x3e125aef	0.14292501
100	0x4112f047	9.183661
101	0xbfc73b97	-1.556506
102	0x3d11470d	0.03546815
103	0xbe63d1af	-0.22247957
104	0xbff6ca46	-1.9280479
105	0x40511e35	3.2674687
106	0xc0bde9a8	-5.9347725
107	0xc0325fc0	-2.787094
108	0xc070bb47	-3.7614305
109	0x3fcf6aa4	1.6204419
110	0xc100ee5c	-8.058193
111	0x40db212d	6.8478
112	0xbffa5165	-1.955609
113	0xbe6e4415	-0.23268159
114	0xc069e9fb	-3.654906
115	0x3fad8965	1.3557554
116	0xc0eb267d	-7.3484483
117	0xc0000a37	-2.0006235
118	0xc0c4c68b	-6.149236
119	0x3f3d6d54	0.73994946
120	0xc0f16ccb	-7.5445304
121	0xbf5490dd	-0.83033544
122	0xc0bc6939	-5.8878446
123	0xbf9c1723	-1.2194561
124	0xc02279d0	-2.5386848
125	0x40018b8d	2.0241425
126	0xc0cfed24	-6.497698
127	0xbfae1ad8	-1.3601942

bn2.running_var f4 [128]
0	0x408a8ec4	4.3299274
1	0x40ad8e91	5.423653
2	0x40566ef6	3.3505225
3	0x3fb8858f	1.4415759
4	0x40114271	2.2696803
5	0x4121b7a9	10.107339
6	0x3ff73aff	1.9314879
7	0x40d0e266	6.5276365
8	0x401b14a2	2.4231343
9	0x3ff68892	1.9260428
10	0x40df4142	6.976716
11	0x3ec5aa9c	0.38606727
12	0x3f83dd0e	1.0301836
13	0x407a0f54	3.9071856
14	0x4014f1dd	2.3272622
15	0x4085ec4d	4.1850953
16	0x4156c6bc	13.423519
17	0x412f8ee8	10.972389
18	0x405b2e88	3.424715
19	0x409b13b3	4.8461547
20	0x41901c6a	18.013874
21	0x4099b1c2	4.802949
22	0x40a18053	5.0469146
23	0x40e9689a	7.2940187
24	0x3f6cd28b	0.92508763
25	0x410ed4cd	8.926953
26	0x408a9f4a	4.3319445
27	0x40a07b3a	5.0150423
28	0x41c31491	24.385042
29	0x4111c54a	9.110666
30	0x4168da80	14.553345
31	0x405080f5	3.257871
32	0x4115f59e	9.372465
33	0x3fee5f1e	1.8622777
34	0x417b7eca	15.718454
35	0x3fe953c4	1.8228688
36	0x3ece322c	0.40272653
37	0x3f7259df	0.9466838
38	0x40e306b6	7.094569
39	0x4224884e	41.13311
40	0x3fb28a12	1.3948386
41	0x40442fa3	3.0654075
42	0x4107ca59	8.486901
43	0x40f314b9	7.5962796
44	0x411a5272	9.645128
45	0x40756605	3.8343518
46	0x40414b86	3.0202346
47	0x400477ad	2.0698044
48	0x412fb724	10.982212
49	0x4029a683	2.650788
50	0x421dc2fc	39.440414
51	0x402350a6	2.5517974
52	0x3f900dc9	1.1254207
53	0x40bfb04f	5.990272
54	0x3fec1d34	1.8446412
55	0x4136e95e	11.431974
56	0x4059c946	3.4029098
57	0x40b97569	5.7955823
58	0x413c8508	11.782478
59	0x41343826	11.263708
60	0x40ccb398	6.396923
61	0x41008fdd	8.035123
62	0x40e206c1	7.0633245
63	0x4119d5ae	9.614668
64	0x4085beab	4.179525
65	0x4070a2a4	3.7599268
66	0x40c365d1	6.1061788
67	0x4110e305	9.055425
68	0x4080ef27	4.0291934
69	0x402fa44d	2.7444031
70	0x408df2ea	4.4359026
71	0x40629a57	3.5406702
72	0x3e8d076d	0.27544728
73	0x400ae1d1	2.1700327
74	0x40668572	3.6018949
75	0x40ccf08d	6.404364
76	0x40680d9c	3.6258307
77	0x404fecfe	3.2488399
78	0x40a7d3f4	5.244623
79	0x400bed59	2.1863616
80	0x4120bca9	10.04606
81	0x3ed265b4	0.41093218
82	0x3f883094	1.0639825
83	0x40226d26	2.537912
84	0x41a7af4e	20.960598
85	0x3eb83e25	0.35984913
86	0x4125c80c	10.36134
87	0x3fb1ba70	1.3885021
88	0x3ee22205	0.4416658
89	0x3f448ee0	0.7678051
90	0x4155f164	13.371433
91	0x4086c92d	4.2120576
92	0x40a12fb4	5.037073
93	0x402745fe	2.613647
94	0x404b2bde	3.1745524
95	0x40005a1e	2.0055003
96	0x3f9f0c4a	1.2425625
97	0x3f4480d7	0.76759094
98	0x3faf10e5	1.3677031
99	0x40a19860	5.0498505
100	0x412666bc	10.400082
101	0x3ff11327	1.883397
102	0x3fcb7cdf	1.5897483
103	0x3fabbb3a	1.3416512
104	0x4029abe8	2.6511173
105	0x3fa4cf00	1.2875671
106	0x3fbb6292	1.4639456
107	0x41b04503	22.033697
108	0x40eb7433	7.3579345
109	0x3f501e48	0.81296206
110	0x40588869	3.3833258
111	0x41170011	9.437516
112	0x40feee1b	7.9665656
113	0x40c6d58b	6.2135673
114	0x40c837e8	6.2568245
115	0x3fb134df	1.384426
116	0x403639f5	2.8472874
117	0x40137bb1	2.3044245
118	0x403ab0c9	2.91704
119	0x40bfd3ab	5.9945884
120	0x402e8de6	2.7274108
121	0x40b042ae	5.5081396
122	0x3fe9c2b5	1.8262545
123	0x413b9dee	11.726057
124	0x40548073	3.32034
125	0x405795d6	3.3685203
126	0x40f04dc2	7.509492
127	0x4108ece1	8.557832

fc3.weight f4 [64, 128]
0	0xc000d7f4	-2.0131807
1	0x3f540364	0.82817674
2	0xbd9fb015	-0.07797257
3	0x3af0e654	0.001837919
4	0xbf975f8c	-1.1826034
5	0x3f197091	0.5993739
6	0xbd4bab8f	-0.049724158
7	0x3d10b883	0.035332214
8	0x3ecdecae	0.40219635
9	0xbe4718bf	-0.19443034
10	0x3fdab915	1.7087733
11	0x3dc8fa4d	0.09813366
12	0xbeb1bb08	-0.34713006
13	0x3e8ef6a5	0.2792255
14	0xc0101fd3	-2.2519424
15	0x3dac708a	0.084199026
16	0xbf177a11	-0.59170634
17	0x3f6c195b	0.9222619
18	0xbd10c326	-0.035342358
19	0xbed83537	-0.422281
20	0x3decd6b3	0.11564388
21	0x3f1a56c5	0.6028865
22	0x3c4ef2f0	0.012631163
23	0xbe2d8a2a	-0.16947237
24	0x3d203b27	0.039118912
25	0x3ecd6881	0.40118793
26	0x4010b599	2.2610838
27	0xbf35a9a5	-0.7096198
28	0xbc1f487d	-0.009721872
29	0xbea1fa40	-0.31636238
30	0xbf972214	-1.1807275
31	0xbdcf8796	-0.10133283
32	0xbf4b5e53	-0.794408
33	0xb9d69ff6	-0.0004093644
34	0x3fe8215d	1.8135182
35	0x3d53d9c6	0.051721357
36	0xbc000638	-0.007813983
37	0xbe126420	-0.14296007
38	0xbcc64005	-0.024200449
39	0x3df8209f	0.12115597
40	0x3ea21d66	0.31663054
41	0x3f1f5f64	0.6225493
42	0xbc8601a4	-0.016358204
43	0xbe059de6	-0.13048515
44	0xbf087578	-0.53304243
45	0x3f4d8570	0.80281734
46	0xbc4b8a8e	-0.012423171
47	0xbccf531b	-0.025308182
48	0x3f97db8a	1.1863873
49	0x3eaa9894	0.33319533
50	0x3eef6d0d	0.46762887
51	0xbc414327	-0.0117957955
52	0x3eb66592	0.35624367
53	0x3fa29dcb	1.2704405
54	0x3ec37cb9	0.38181093
55	0xbee57d3a	-0.44822103
56	0xbe86962b	-0.26286444
57	0x3d16597f	0.036706444
58	0x3e1bcd37	0.15215002
59	0x3edec94a	0.43512946
60	0xbf4909ec	-0.78530765
61	0x3f466679	0.7750011
62	0x3bdc3f20	0.0067213923
63	0xbdb30935	-0.087419905
64	0xbe98a750	-0.2981515
65	0x3ecf2366	0.40456694
66	0xbdc19b49	-0.094534464
67	0x3f1cb293	0.6120998
68	0x406559ea	3.583613
69	0xbe9b45cf	-0.30326697
70	0xbf0a1592	-0.53939164
71	0xbfc6a4ac	-1.5519004
72	0x3dc5815d	0.09643815
73	0xbf02dd61	-0.5111905
74	0x3f479739	0.7796512
75	0xbd026305	-0.031832714
76	0xbafe68f4	-0.001940994
77	0xbed49551	-0.4152017
78	0x3f034ccd	0.51289064
79	0xbf5564d3	-0.8335697
80	0xbcafc60a	-0.021456737
81	0xbde75838	-0.11296123
82	0xbdef48b6	-0.116837904
83	0xbed96847	-0.4246237
84	0xbf0187cd	-0.5059784
85	0xbc07d56b	-0.008290629
86	0x3ef966a4	0.4871112
87	0xbe9a5838	-0.3014543
88	0x3d3c8952	0.046029396
89	0xbd6dc98b	-0.058053534
90	0x3f595b11	0.8490458
91	0xbe7332ef	-0.23749898
92	0xbf4119d5	-0.7543004
93	0x3f54f7f9	0.83190876
94	0x4001fd9d	2.0311043
95	0xbf731729	-0.94957215
96	0x3f9674af	1.1754359
97	0xbce8a157	-0.028397245
98	0xbdaa79fb	-0.08324047
99	0xbf924225	-1.1426436
100	0x3f489231	0.7834807
101	0xbd356369	-0.044284258
102	0x3f823f00	1.0175476
103	0xbcba0c88	-0.022711053
104	0xbd95d142	-0.073153034
105	0xbf3a06c8	-0.726666
106	0x3e134a33	0.14383774
107	0x3f074565	0.5284026
108	0xbd392b1d	-0.04520713
109	0xbedd8d82	-0.43272024
110	0xbfbb0e87	-1.4613808
111	0x3f2da258	0.6782584
112	0x3ededf5f	0.43529794
113	0xbd3e7de5	-0.04650678
114	0x3e87bd02	0.2651139
115	0xbd868c01	-0.065696724
116	0xbd91500f	-0.07095348
117	0x3bdb171c	0.0066861045
118	0x3e7156df	0.23568295
119	0x400c9ea1	2.197182
120	0xc01ae29e	-2.4200816
121	0x3c562550	0.013070419
122	0x4089bd3c	4.30435
123	0xbf0780fc	-0.5293119
124	0x3f5f6382	0.8726121
125	0x3bd4fd1b	0.006499899
126	0xbfa44dab	-1.2836202
127	0x3ee4bdd1	0.44676068
128	0xbfaa5fa6	-1.331044
129	0xbe877e7d	-0.2646369
130	0xbd1a9cc3	-0.037747156
131	0xbd8ddbf5	-0.06926719
132	0x3f37d6cf	0.71812147
133	0x3ede77b3	0.43450698
134	0x3bbcc052	0.005760231
135	0xc00295a2	-2.0403829
136	0x3efa7fad	0.48925534
137	0x3f23379c	0.6375673
138	0x3f8059b5	1.0027376
139	0x3d30ba7c	0.043146595
140	0x3d105aa5	0.035242695
141	0xbf2ce8a8	-0.67542505
142	0x3e652a12	0.2237933
143	0x3f2380f8	0.63868666
144	0xbf4e8772	-0.80675423
145	0x3f4ee855	0.8082326
146	0x3d1f4cfc	0.038891777
147	0xbf89e076	-1.0771625
148	0x3f07d0d7	0.5305304
149	0x3f8e52c0	1.1119003
150	0x3c7e4313	0.015518921
151	0x3edc4de7	0.43028185
152	0xbbc5e374	-0.0060390774
153	0x3f01ba14	0.5067456
154	0xbe88aab2	-0.2669273
155	0x3c8773e9	0.016534762
156	0xbccbed36	-0.024893384
157	0x3f9a0694	1.2033257
158	0xbf081ddd	-0.5317057
159	0xbf49535c	-0.7864282
160	0x3e163fab	0.14672725
161	0x3d1a0f7e	0.03761243
162	0x3fdf56ac	1.7448325
163	0x3d15f4fa	0.03661058
164	0xbca8d8dd	-0.020611221
165	0x3f33219b	0.6997315
166	0xbbfc83a7	-0.007706124
167	0x3f3eadef	0.7448415
168	0xbec9f4cf	-0.39444587
169	0x3f1f1d49	0.6215406
170	0x3d5ab814	0.053398207
171	0x3e9d5381	0.3072777
172	0xbf801b5e	-1.0008352
173	0xbd362d17	-0.044476595
174	0xbba42821	-0.0050096666
175	0x3c3afe2f	0.011413141
176	0x3f2dad29	0.67842346
177	0x3eb3c8b8	0.35114074
178	0x3f21c302	0.63188183
179	0x3b570d22	0.0032814224
180	0xbed63b67	-0.41842195
181	0x3ec368cd	0.38165894
182	0xbefdc54f	-0.49564597
183	0x3d4d84cf	0.050175484
184	0xbed07fa5	-0.40722385
185	0xbd25900a	-0.04042057
186	0x3f303fc2	0.68847287
187	0x3f804bb0	1.0023098
188	0xbeed5ff0	-0.46362257
189	0x3e94bd9c	0.2905091
190	0x3c8ca00d	0.017166162
191	0xbe7e77a7	-0.24850331
192	0xbdc6e8d8	-0.0971238
193	0x3f64e686	0.8941425
194	0x3f9144f7	1.1349171
195	0x3f3851be	0.7199973
196	0x404185dd	3.0237954
197	0x3f5c7237	0.8611178
198	0x3e87868a	0.26469833
199	0x3e8b3bac	0.27193964
200	0x3d991ead	0.07476554
201	0xbe64ded8	-0.22350633
202	0x3e83233b	0.25612816
203	0xbcb8ace4	-0.022543378
204	0xbd8ea8bb	-0.069657765
205	0xbe8f5449	-0.27993992
206	0x3f4b6f19	0.79466397
207	0xbeaf9251	-0.34291318
208	0x3ba3addd	0.0049950914
209	0xbd37520f	-0.04475599
210	0xbf1d02b1	-0.6133223
211	0xbe113b23	-0.14182715
212	0xbf08d763	-0.53453654
213	0xbd43623e	-0.047701113
214	0x3ee975e0	0.45597744
215	0xbebe1660	-0.37126446
216	0xbd91925e	-0.071079955
217	0xbd3cc74d	-0.046088506
218	0x3f60236c	0.8755405
219	0xbf8f7bd5	-1.1209666
220	0xbf5285fd	-0.822357
221	0x3f5693ab	0.83819073
222	0x4032470e	2.7855868
223	0xbf90440e	-1.1270769
224	0x3e919709	0.28435543
225	0xbd504ce5	-0.050854582
226	0xbd610460	-0.054935813
227	0xbf8d46d3	-1.1037239
228	0x3e80d82e	0.25164932
229	0xbc9a896c	-0.018864356
230	0x3f816abe	1.01107
231	0x3c8bc1e2	0.017060224
232	0x3c8896c6	0.016673457
233	0xbf0e15e2	-0.5550214
234	0x3ee4e923	0.4470912
235	0x3ea895ca	0.3292678
236	0xbd5d17d1	-0.05397779
237	0xbf3fec59	-0.7497001
238	0xbec15763	-0.37761983
239	0x3ed29ec1	0.41136745
240	0xbecc2b3f	-0.39876744
241	0x3f3a2c39	0.7272373
242	0x3f23e80e	0.6402596
243	0xbbe1c418	-0.0068898313
244	0xbf2ad527	-0.66731495
245	0x3d8667b5	0.06562749
246	0xbf860bef	-1.0472392
247	0x3fcebb01	1.6150819
248	0x3f150b4a	0.5822035
249	0xbc3d92a0	-0.011570603
250	0xbfe221fc	-1.7666621
251	0x3f0b0b77	0.5431437
252	0xbf06685c	-0.5250299
253	0x3cb1913b	0.021675697
254	0x3e2d7070	0.16937423
255	0x3f1357f7	0.575561

fc3.bias f4 [64]
0	0xbff88614	-1.9415917
1	0x3e8878ed	0.2665476
2	0xbe689725	-0.22713907
3	0xbef3db64	-0.4762832
4	0x3e42d6a6	0.19027194
5	0x3f8f8931	1.1213742
6	0xbf902d1e	-1.1263769
7	0xbd4ed8cd	-0.050499726
8	0x3f7b7c0f	0.98236173
9	0x3c5e8cac	0.0135833435
10	0x3dca822c	0.098881096
11	0xbfb8735c	-1.4410205
12	0xbf845bf7	-1.0340565
13	0x3f469395	0.7756894
14	0xbf84835a	-1.0352585
15	0x3ed4ed5c	0.4158734
16	0x3f3885e6	0.7207931
17	0x3f110bcc	0.56658626
18	0xbf444c6e	-0.7667912
19	0xbfa4bc13	-1.2869896
20	0x3c2d9a78	0.01059591
21	0x3fe1c625	1.7638594
22	0x3f145e29	0.57956177
23	0x3e5f7fb7	0.21826063
24	0x3e767104	0.2406655
25	0xbfdcde1c	-1.7255282
26	0xbfc95258	-1.5728254
27	0xc01a52cd	-2.4113038
28	0x3e91e59c	0.2849549
29	0xbf5d12ed	-0.86357003
30	0x3f3a9be0	0.72894096
31	0xbfc2071e	-1.5158422
32	0x3b13fb48	0.0022580195
33	0xbd9a82a5	-0.0754445
34	0x3ed3fbbb	0.41402993
35	0x3f0ff24d	0.56229097
36	0x3e993f0d	0.29930916
37	0xbee274b7	-0.4422967
38	0xbed3e3d9	-0.4138477
39	0x3f8ba8c3	1.0910877
40	0xbfa83320	-1.3140602
41	0xbe67d3de	-0.22639415
42	0x3f9602df	1.1719626
43	0x3f7a7142	0.9782907
44	0xbf0816b5	-0.5315965
45	0x3f1ca145	0.6118358
46	0xbe32ab7d	-0.1744823
47	0xbe188e04	-0.14897925
48	0x3f72a5d7	0.947843
49	0x3f0d3a4c	0.5516708
50	0x3f567944	0.83778787
51	0xbf0ead45	-0.5573314
52	0x3ed53b75	0.41646925
53	0x3d30754e	0.04308062
54	0x3f2328ee	0.6373433
55	0xbeea66cb	-0.4578155
56	0xbf09bda8	-0.5380502
57	0xbe6c8f4a	-0.23101535
58	0xbd24bd0e	-0.04021936
59	0xbe94fda0	-0.2909975
60	0xbe852205	-0.26002517
61	0xbea0cad1	-0.31404737
62	0x3ee54930	0.447824
63	0xbf875c84	-1.0575109

bn3.weight f4 [64]
0	0x43a3a7ba	327.31036
1	0x43a52642	330.2989
2	0x43a3943d	327.1581
3	0x439d7f59	314.9949
4	0x439fd56d	319.6674
5	0x439a6bb3	308.8414
6	0x439c7012	312.87555
7	0x43a689e8	333.0774
8	0x439a7b6d	308.96426
9	0x43a39307	327.14865
10	0x439a81e7	309.01486
11	0x43a776f1	334.92923
12	0x43a0978b	321.18393
13	0x4398f9ff	305.9531
14	0x43a4ad26	329.35272
15	0x439d3ee3	314.4913
16	0x439e167d	316.1757
17	0x439a1183	308.1368
18	0x43a74bd4	334.5924
19	0x4392a05f	293.2529
20	0x439bca64	311.58118
21	0x439d6f99	314.87186
22	0x439e9c6e	317.2221
23	0x43a47e33	328.98593
24	0x4397eb8b	303.84018
25	0x4394c220	297.5166
26	0x43a59d06	331.22675
27	0x43a412af	328.14597
28	0x439fad7a	319.3553
29	0x439a9911	309.19583
30	0x43a6bdf4	333.484
31	0x43a588f8	331.07007
32	0x439d6479	314.78494
33	0x439c26a3	312.30185
34	0x43a02897	320.3171
35	0x439d21ab	314.26303
36	0x439c52ee	312.6479
37	0x439c93fc	313.15613
38	0x43a3f580	327.91797
39	0x439c2841	312.31448
40	0x439ff74f	319.9321
41	0x43933d57	294.47922
42	0x43a3688c	326.81677
43	0x4396bfbb	301.4979
44	0x43a1d82a	323.68878
45	0x43a51a1c	330.20398
46	0x43a4768a	328.9261
47	0x43a53914	330.44592
48	0x439c23e0	312.28027
49	0x4399a5da	307.29572
50	0x43a5f551	331.91653
51	0x43a58421	331.03226
52	0x439e38c6	316.44354
53	0x439cc276	313.51923
54	0x43969af5	301.2106
55	0x439a8a5c	309.08093
56	0x4390cfcc	289.6234
57	0x438df968	283.9485
58	0x439e3dca	316.48273
59	0x439fffce	319.99847
60	0x43a2ddea	325.7337
61	0x43a51137	330.1345
62	0x43a2ed96	325.85614
63	0x43a62064	332.25305

bn3.bias f4 [64]
0	0x43f6d994	493.69983
1	0x43f2fc99	485.97342
2	0x43f2edee	485.85883
3	0x43f304b7	486.03683
4	0x43f39564	487.1671
5	0x43f65acf	492.70944
6	0x43f6912b	493.13412
7	0x43f2f23c	485.89246
8	0x43f65022	492.62604
9	0x43f301b1	486.0132
10	0x43f66809	492.81277
11	0x43f30627	486.04807
12	0x43f3115d	486.13565
13	0x43f62d48	492.35376
14	0x43f6e856	493.81512
15	0x43f2ae4a	485.36163
16	0x43f21908	484.19556
17	0x43f65d94	492.73108
18	0x43f3134a	486.1507
19	0x43f2ba15	485.45377
20	0x43f3069d	486.05167
21	0x43f6a7d0	493.31104
22	0x43f6c4aa	493.53644
23	0x43f6e6df	493.80368
24	0x43f60750	492.05713
25	0x43f5c001	491.50003
26	0x43f6cd79	493.60526
27	0x43f6dda0	493.73145
28	0x43f31a75	486.2067
29	0x43f65eef	492.74167
30	0x43f31d10	486.22705
31	0x43f6dcfc	493.72644
32	0x43f2b851	485.43997
33	0x43f1c3e4	483.5304
34	0x43f3be57	487.48703
35	0x43f1c7a7	483.55978
36	0x43f68dd8	493.10815
37	0x43f1d3c0	483.6543
38	0x43f6e849	493.81473
39	0x43f6957d	493.16788
40	0x43f31de4	486.23352
41	0x43f59de1	491.23343
42	0x43f6de39	493.7361
43	0x43f5f68b	491.92612
44	0x43f3254a	486.29132
45	0x43f6e177	493.76144
46	0x43f6e645	493.79898
47	0x43f6d322	493.64948
48	0x43f697e3	493.1866
49	0x43f640d4	492.50647
50	0x43f2f832	485.93903
51	0x43f2eedd	485.86612
52	0x43f32f6f	486.37057
53	0x43f30e54	486.11194
54	0x43f5dbfc	491.71863
55	0x43f65f88	492.74634
56	0x43f57527	490.91525
57	0x43f4c060	489.50293
58	0x43f3348c	486.41052
59	0x43f6df79	493.74588
60	0x43f2e15b	485.7606
61	0x43f6e2d9	493.77225
62	0x43f32a33	486.32968
63	0x43f2f79a	485.9344

bn3.running_mean f4 [64]
0	0xbfe74aca	-1.8069699
1	0xbfbd6375	-1.4795977
2	0xbfd5d9d5	-1.6707102
3	0xbfb732f2	-1.4312422
4	0xbf277a7d	-0.6542128
5	0x3e8ba7dd	0.27276507
6	0xbfe17ffd	-1.7617184
7	0xc0290e0a	-2.6414819
8	0x3e14ec0c	0.1454317
9	0xbfa838ac	-1.3142295
10	0xbf3d1251	-0.73856074
11	0xc060f388	-3.514864
12	0xc0051c00	-2.079834
13	0xbe5925c3	-0.21205811
14	0xbf4bdd22	-0.79634297
15	0xbf34e1a2	-0.7065679
16	0xbcc182f8	-0.023622021
17	0xbea28598	-0.3174255
18	0xc0617eb2	-3.5233579
19	0xbfcb7763	-1.5895809
20	0xbf6b3a5e	-0.91885936
21	0x3f9f0549	1.2423488
22	0x3e6f60b0	0.23376727
23	0x3ee5a4e5	0.44852367
24	0xbf50d36b	-0.815726
25	0xc03b7361	-2.9289172
26	0xbfa6f4c7	-1.304345
27	0xc00e2e7c	-2.2215872
28	0xbf4cc1e9	-0.79983383
29	0xbfd7b406	-1.6851814
30	0xbfe7e9bc	-1.8118205
31	0xbf9dd895	-1.233172
32	0xbf8c6cd9	-1.0970718
33	0xbe8cd9ba	-0.27509862
34	0xbf5a5a00	-0.8529358
35	0x3e981c6b	0.2970918
36	0xbeb89dc1	-0.36057857
37	0xbf437ee1	-0.76365477
38	0xbe69d615	-0.22835572
39	0x3ecfd2d7	0.40590546
40	0xc0445948	-3.0679493
41	0xbfb6e171	-1.4287549
42	0x3fa86177	1.3154744
43	0xbe152dbe	-0.1456823
44	0xc0077aef	-2.1168783
45	0x3f5ed7c9	0.8704801
46	0x3cdeed5d	0.027212793
47	0x3de591d7	0.11209457
48	0x3e91083d	0.28326598
49	0xbebbf69e	-0.3671159
50	0xbf6ff600	-0.9373474
51	0xc03742a1	-2.8634417
52	0xbef51a08	-0.47871423
53	0xbf5d35cd	-0.8641022
54	0xbf010d06	-0.504105
55	0xbfa51c34	-1.2899232
56	0xbfbce01b	-1.4755892
57	0xbf810717	-1.0080289
58	0xbf642989	-0.8912588
59	0xbefa07c5	-0.48834053
60	0xc00ff346	-2.2492232
61	0xbd641ee8	-0.055693537
62	0xbfbec697	-1.4904355
63	0xc05f4f24	-3.4892054
